visualization/models/GAT_model.pth (torch, 43022 bytes, 16 tensors)

layers.0.att_src f4 [1, 1, 64]
-0.113749236 -0.0420618 0.1252036 0.0008368158 0.26980522 -0.012191527 -0.103149325 -0.00951068
-0.23350333 0.228666 -0.26498455 0.17839234 -0.23121758 -0.040758107 6.6174052e-06 -0.0002749111
-0.030980064 -0.044632614 -0.013394238 0.014408361 -0.004351441 0.26829433 -0.09055501 -0.0071103787
-0.21630488 0.1478709 0.026019283 0.19840929 0.062823445 -0.13934416 0.26595667 0.08056295
0.23757473 0.34211144 -0.18475816 0.0381805 0.32960322 0.11598609 -0.008700262 1.6213737e-05
-0.20885141 -0.013836249 -0.04819284 0.13552065 -0.25659695 0.22456151 0.18465067 0.18129328
-6.938037e-05 0.028613696 0.13816291 0.053906254 -0.000948597 -0.009343777 0.2943847 -0.14695705
0.26443252 -0.0125702545 -0.26862818 -0.280807 0.09955758 0.12465099 0.0055718967 0.5248082
00000000: 5cf5 e8bd fe48 2cbd 5f35 003e c25d 5b3a
00000010: e923 8a3e f8be 47bc f43f d3bd afd2 1bbc
00000020: 7f1b 6fbe 6b27 6a3e 0eac 87be 7bac 363e
00000030: 4dc4 6cbe f9f1 26bd 140b de36 f121 90b9
00000040: e7c9 fdbc b0d0 36bd 8273 5bbc 0c11 6c3c
00000050: 8896 8ebb e05d 893e e874 b9bd 2efe e8bb
00000060: 077f 5dbe 786b 173e 6426 d53c ce2b 4b3e
00000070: 94a9 803d 3cb0 0ebe 792b 883e 30fe a43d
00000080: ca46 733e 3b29 af3e 3e31 3dbe 2863 1c3d
00000090: c1c1 a83e 1d8a ed3d 8b8b 0ebc bc02 8837
000000a0: 25dd 55be 6fb1 62bc db65 45bd edc5 0a3e
000000b0: ad60 83be 74f3 653e 1115 3d3e f2a4 393e
000000c0: 4d80 91b8 4567 ea3c 947a 0d3e cecc 5c3d
000000d0: 44ab 78ba a416 19bc 97b9 963e e97b 16be
000000e0: b363 873e 78f3 4dbc a289 89be efc5 8fbe
000000f0: d8e4 cb3d 0549 ff3d 7594 b63b d559 063f

layers.0.att_dst f4 [1, 1, 64]
0.06327473 0.015216153 -0.06746664 -0.0140118 0.05842223 0.03647559 0.07119504 0.040985886
0.04513896 0.063659124 -0.0029774904 -0.008706116 0.019791903 -0.022078319 -0.00028437027 -2.456351e-05
-0.0285701 -0.012091184 0.115666784 0.0052503957 0.03589152 -0.13475387 -0.10565858 0.049488727
0.047759734 0.05610586 -0.124413185 -0.075384386 -0.01821332 -0.040924802 0.014993936 -0.018474944
-0.23387237 -0.15412878 0.053645942 -0.10935082 -0.02697382 0.16939977 0.077409565 0.00022560803
0.0043934328 0.033710547 0.038437992 0.0022502737 0.0035357259 -0.06030354 -0.047186892 -0.1181389
0.00039885537 0.10530293 -0.046922397 -0.03546604 0.07300823 0.063651405 -0.057407048 -0.0194748
-0.09941589 0.08608332 0.20193063 0.06812257 0.0043915925 -0.055094503 -0.02859126 -0.16592781
00000000: 2f96 813d 2c4d 793c f32b 8abd c091 65bc
00000010: 264c 6f3d 6e67 153d b5ce 913d d1e0 273d
00000020: a1e3 383d b75f 823d 0022 43bb 19a4 0ebc
00000030: a122 a23c 97dd b4bc 8817 95b9 bc0d ceb7
00000040: d80b eabc 1a1a 46bc b5e2 ec3d 830b ac3b
00000050: fd02 133d ebfc 09be 8763 d8bd b1b4 4a3d
00000060: b69f 433d 42cf 653d 57cc febd 2163 9abd
00000070: 1a34 95bc c4a0 27bd 20a9 753c c458 97bc
00000080: 3d7c 6fbe efd3 1dbe d9bb 5b3d 53f3 dfbd
00000090: 33f8 dcbc 2277 2d3e e888 9e3d 3291 6c39
000000a0: c9f6 8f3b 1214 0a3d 2871 1d3d 5479 133b
000000b0: a3b7 673b d800 77bd 0b47 41bd cff2 f1bd
000000c0: 761d d139 10a9 d73d b331 40bd d744 11bd
000000d0: 5785 953d ab5b 823d a723 6bbd 9e89 9fbc
000000e0: 8f9a cbbd 744c b03d e7c6 4e3e d983 8b3d
000000f0: 59e7 8f3b c6aa 61bd 3838 eabc fbe8 29be

layers.0.bias f4 [64]
0.05352838 0.07451406 0.12861441 -0.054514457 0.1357098 -0.033373576 -0.052593764 -0.033933014
0.06366761 0.18378934 -0.026505327 0.11689204 0.0678766 -0.09051475 -0.0020307908 -0.021482065
0.18068664 -0.015810914 0.01483113 -0.003085909 -0.03910798 0.10617957 0.060679488 -0.058222033
0.05530535 0.009449526 -0.046309754 0.1267612 0.1507871 -0.024292551 0.13446078 -0.015569606
0.14958525 0.08247989 0.09048655 0.1582043 0.19171621 0.090056874 -0.02884939 -0.013738768
-0.013366715 -0.06394539 -0.053809427 0.038571402 0.08093578 -0.05109368 0.024069432 0.05510214
-0.004781758 0.011446164 0.04906045 0.038414627 -0.07224786 -0.07586583 -0.06794265 -0.12451868
0.21748923 -0.06731441 0.03417296 0.008256955 0.08194083 0.07824639 -0.006430133 0.06743018
00000000: 9340 5b3d d49a 983d 7fb3 033e 8d4a 5fbd
00000010: 83f7 0a3e bbb2 08bd 8f6c 57bd 58fd 0abd
00000020: 2a64 823d 4633 3c3e b321 d9bc 1865 ef3d
00000030: e302 8b3d cc5f b9bd 0417 05bb 28fb afbc
00000040: eb05 393e e485 81bc 45fe 723c f63c 4abb
00000050: b02f 20bd ad74 d93d 0e8b 783d 3a7a 6ebd
00000060: dd87 623d 2fd2 1a3c 4caf 3dbd b0cd 013e
00000070: ef67 1a3e 2c01 c7bc 16b0 093e a917 7fbc
00000080: e02c 193e 37eb a83d 0351 b93d 4f00 223e
00000090: 4151 443e bd6f b83d 8e55 ecbc 9218 61bc
000000a0: 1100 5bbc cdf5 82bd 4667 5cbd 0cfd 1d3d
000000b0: a9c1 a53d 9b47 51bd 422d c53c c8b2 613d
000000c0: 4bb0 9cbb b188 3b3c 9cf3 483d a858 1d3d
000000d0: b0f6 93bd 8b5f 9bbd 8425 8bbd a603 ffbd
000000e0: 7fb5 5e3e 23dc 89bd f2f8 0b3d 2e48 073c
000000f0: 98d0 a73d a53f a03d ddb3 d2bb d618 8a3d

layers.0.lin.weight f4 [64, 7]
-0.21167074 0.39789033 -0.4225145 0.39883018 3.9216511e-13 -0.20275013 0.20755756 -0.13333715
0.38785955 0.17015085 -0.16768847 2.752759e-13 0.27221745 -0.038756587 -0.25601563 0.063056596
-0.2655772 0.5169249 -1.7600515e-14 0.029404324 0.2140372 -0.009246968 0.003736341 -0.007119215
-0.0039631473 2.318994e-13 -0.008833299 -0.005956238 -0.14070034 0.4488027 0.24616176 0.1449598
2.2611018e-14 0.46022663 -0.026939485 0.045801595 0.0117402775 -0.010487932 -0.012082827 8.291056e-14
-0.009258432 0.0030389652 -0.019804027 0.14085779 -0.04785297 -0.097017944 4.884719e-14 -0.06488934
-0.04271353 0.059254292 0.008487847 -0.0067333407 -0.011129191 4.8934836e-13 -0.011629345 0.0046256604
0.3603141 -0.2355821 -0.13848348 -0.15868813 1.9615014e-13 -0.27386722 -0.004928928 -0.22913738
0.5035196 -0.15399346 0.33202368 5.6732932e-14 0.51861775 0.071221136 0.0370829 -0.105029106
-0.14721061 -0.2748797 -1.1643708e-14 -0.15368012 -0.061681796 -0.14313602 0.26476073 0.14469172
0.025473105 4.485924e-13 0.3589577 -0.028895067 0.23705773 -0.23008265 -0.07998459 -0.23986492
-3.344458e-14 -0.22365208 0.013271989 -0.022608392 -0.032943144 -0.022706816 -0.04655943 -4.0058587e-13
0.0030042066 -0.023839807 -0.00020663193 -3.5241414e-05 6.657525e-05 0.00018424918 -2.8472006e-13 0.0007816469
0.00014059455 -0.00016777999 -5.7347443e-06 0.0007378568 0.0012154137 -2.340975e-13 -7.664409e-05 0.0008798265
-0.22311875 0.47638163 0.2408364 -0.080827534 -1.6692978e-13 0.38542682 -0.13143766 -0.0018384958
-0.020537345 -0.026139257 -0.050250795 -2.0388374e-14 -0.040964358 -0.026260115 0.31141326 -0.1991411
0.044064738 0.20982943 1.10746075e-13 -0.12775667 0.1034373 0.004212786 0.0028443588 0.07263439
0.0027797946 -6.973969e-14 0.006077158 0.002870423 0.05086784 0.017906725 0.0037347863 -0.008221163
-1.8165329e-13 -0.0034551169 0.0037647784 -0.036996096 -0.3312265 0.04121 0.5237752 3.1823933e-13
0.12515152 0.18616576 -0.28331783 0.337715 -0.33307654 -0.05392672 -7.202687e-13 0.20977837
-0.06074835 0.07466706 0.023561338 -0.006201237 -0.018859692 5.590886e-13 0.008933311 0.002167159
0.28637198 -0.18917586 -0.111901365 -0.2292657 3.3899985e-13 -0.24886453 -0.030968135 0.18352443
-0.21616246 0.032988288 0.51659745 -2.595661e-13 -0.027842555 0.23066258 -0.107361846 -0.051274423
0.00037170787 0.03698557 1.8334719e-13 0.031778514 -0.020920206 -0.35472956 0.20550883 -0.327713
0.48579586 -6.519931e-14 0.26426283 0.2073173 -0.28533998 0.30090842 -0.44441146 0.4909074
-2.3332603e-13 0.26408118 0.22729859 -0.00298934 -0.05820156 -0.07562642 -0.14917985 -6.392395e-13
-0.08995717 -0.04670366 -0.1915664 0.29369798 -0.11501591 0.41904527 1.8433399e-14 0.38732854
0.13271579 -0.019565284 -0.000332176 0.25041527 -0.0025336556 -7.152464e-13 0.058791164 0.02094925
-0.37050623 -0.046679556 0.6118521 -0.12667535 2.801514e-15 0.2725369 0.0034086427 -0.026405944
-0.3927498 0.03702078 0.6226663 7.0680054e-14 0.20281212 0.21761313 0.2478656 -0.21390061
-0.07307267 -0.19355512 1.1889934e-13 -0.2787456 -0.015077347 -0.28036252 0.2022231 -0.020678252
-0.07134525 1.7412107e-13 0.28739366 -0.010947529 -0.19581167 0.3863055 0.099202625 0.18744068
00000000: 37c0 58be 48b8 cb3e d253 d8be 7833 cc3e
00000010: f3c4 dc2a bb9d 4fbe f889 543e 8989 08be
00000020: 8795 c63e 063c 2e3e 87b6 2bbe 70f7 9a2a
00000030: 1660 8b3e 3abf 1ebd 7b14 83be d123 813d
00000040: bcf9 87be 3155 043f 0688 9ea8 56e1 f03c
00000050: 912c 5b3e 9880 17bc 66dd 743b 4e48 e9bb
00000060: 4add 81bb 3a8c 822a 8bb9 10bc 8c2c c3bb
00000070: c013 10be 78c9 e53e d411 7c3e 5870 143e
00000080: 75a9 cb28 d3a2 eb3e 32b0 dcbc 749a 3b3d
00000090: 4b5a 403c 93d5 2bbc 0df7 45bc afb2 ba29
000000a0: aeb0 17bc 6029 473b 0e3c a2bc 063d 103e
000000b0: 7a01 44bd 58b1 c6bd fafc 5b29 b4e4 84bd
000000c0: 62f4 2ebd a1b4 723d 9c10 0b3c 5ba3 dcbb
000000d0: 3657 36bc 44bd 092b 0289 3ebc da92 973b
000000e0: 177b b83e 6f3c 71be 9dce 0dbe 247f 22be
000000f0: 6ed8 5c2a 5338 8cbe d882 a1bb fda2 6abe
00000100: a9e6 003f 76b0 1dbe 02ff a93e 9e80 7f29
00000110: 22c4 043f 63dc 913d 3de4 173d 8019 d7bd
00000120: 61be 16be 08bd 8cbe 20c1 51a8 525e 1dbe
00000130: 0da6 7cbd 4092 12be b88e 873e 112a 143e
00000140: f9ac d03c fa88 fc2a 4ec9 b73e 59b5 ecbc
00000150: 43bf 723e c99a 6bbe f6ce a3bd 269f 75be
00000160: fa9e 16a9 0d05 65be c272 593c 3c35 b9bc
00000170: 64ef 06bd a503 babc 1ab5 3ebd 8282 e1aa
00000180: 39e2 443b b34b c3bc 56ab 58b9 2ed0 13b8
00000190: 519e 8b38 0333 4139 7c48 a0aa 6fe7 4c3a
000001a0: 906c 1339 19ee 2fb9 146d c0b6 bb6c 413a
000001b0: 844e 9f3a 01c9 83aa fcbb a0b8 28a4 663a
000001c0: 3e79 64be 4be8 f33e d19d 763e e888 a5bd
000001d0: 3cf2 3baa aa56 c53e 9897 06be aff9 f0ba
000001e0: ef3d a8bc ff21 d6bc c7d3 4dbd 64a4 b7a8
000001f0: 3eca 27bd 741f d7bc 8f71 9f3e a5eb 4bbe
00000200: 3a7d 343d 87dd 563e c460 f929 a5d2 02be
00000210: efd6 d33d 690b 8a3b 6c68 3a3b 57c1 943d
00000220: 372d 363b 320a 9da9 e522 c73b b51d 3c3b
00000230: cc5a 503d 20b1 923c 51c3 743b 0fb2 06bc
00000240: ff85 4caa 3e6f 62bb 80ba 763b 3889 17bd
00000250: 8596 a9be d1cb 283d 2216 063f 1f27 b32a
00000260: b827 003e 3da2 3e3e 090f 91be fbe8 ac3e
00000270: 0289 aabe 44e2 5cbd d4bc 4aab 24d0 563e
00000280: 43d3 78bd 0beb 983d b503 c13c bf33 cbbb
00000290: a47f 9abc 945e 1d2b 065d 123c e506 0e3b
000002a0: 599f 923e 51b7 41be 8b2c e5bd a1c4 6abe
000002b0: 07d7 be2a 58d6 7ebe e3b0 fdbc d4ed 3b3e
000002c0: b159 5dbe ba1e 073d bb3f 043f 6b1f 92aa
000002d0: 1216 e4bc d032 6c3e 87e0 dbbd 2105 52bd
000002e0: c9e1 c239 2e7e 173d 3b6e 4e2a 302a 023d
000002f0: da60 abbc 1d9f b5be e870 523e 00ca a7be
00000300: 3cba f83e d8d0 92a9 754d 873e fc4a 543e
00000310: 1518 92be ab10 9a3e e689 e3be 3758 fb3e
00000320: d359 83aa a635 873e f6c0 683e cee8 43bb
00000330: c264 6ebd 06e2 9abd 9ac2 18be 0fee 33ab
00000340: 773b b8bd 564c 3fbd fb29 44be 955f 963e
00000350: 768d ebbd 1a8d d63e 8608 a628 ed4f c63e
00000360: a6e6 073e 6047 a0bc e827 aeb9 6e36 803e
00000370: b00b 26bb ef52 49ab 01cf 703d c39d ab3c
00000380: feb2 bdbe 1033 3fbd 57a2 1c3f 2fb7 01be
00000390: d0de 4927 f589 8b3e 8963 5f3b 4751 d8bc
000003a0: 8016 c9be 1aa3 173d 0f67 1f3f 4728 9f29
000003b0: fbad 4f3e fad5 5e3e 7bd0 7d3e c308 5bbe
000003c0: 20a7 95bd 5033 46be 67de 052a beb7 8ebe
000003d0: fa06 77bc ad8b 8fbe 9313 4f3e 7065 a9bc
000003e0: 751d 92bd fb0a 442a 4325 933e 445d 33bc
000003f0: db82 48be d6c9 c53e bf2a cb3d 73f0 3f3e

layers.1.att_src f4 [1, 1, 64]
0.38167498 -0.6690695 0.001022155 -0.06606417 0.0009343056 0.0019188313 -0.16018829 0.3131242
0.005288477 -0.7232835 -0.33086368 -0.3811445 0.012982683 0.34860063 -0.033500258 -0.33035353
-0.18514846 -0.71544874 0.26516786 -0.7114055 -0.0062251515 0.04571378 0.17542525 -0.33598676
-0.05731472 0.011254893 0.006589683 -0.0019054195 0.2647811 -0.41179308 -0.6011732 0.0038427215
-0.06105843 -0.13993455 -0.36550128 -0.26201758 0.61777014 0.0011825731 -0.22221997 -0.24849297
-0.04784158 -0.6469259 0.090951525 -0.15828308 -0.021519417 -0.28671432 0.77502173 -0.8190593
0.0032576649 -0.3231204 -0.05555199 -0.73344 -0.021429108 0.007999587 -0.15184635 -0.009658197
0.0168724 0.17499915 -0.14723599 -0.0022721512 0.337401 -0.008992083 0.140624 0.13805759
00000000: e76a c33e 2448 2bbf d5f9 853a a74c 87bd
00000010: 30ec 743a 4b81 fb3a 6608 24be d151 a03e
00000020: f64a ad3b 1c29 39bf f766 a9be 5f25 c3be
00000030: 52b5 543c c87b b23e 9137 09bd 1924 a9be
00000040: 8f97 3dbe a627 37bf 15c4 873e ac1e 36bf
00000050: 5bfc cbbb 5f3e 3b3d ada2 333e 7506 acbe
00000060: d7c2 6abd 7166 383c 44ee d73b 45bf f9ba
00000070: 6391 873e 8bd6 d2be 7de6 19bf 2bd6 7b3b
00000080: 6718 7abd 014b 0fbe fc22 bbbe 2b27 86be
00000090: 2f26 1e3f 9200 9b3a a28d 63be f174 7ebe
000000a0: 88f5 43bd f09c 25bf cb44 ba3d f614 22be
000000b0: 7d49 b0bc 38cc 92be d367 463f dfad 51bf
000000c0: 8c7e 553b 0970 a5be 7c8a 63bd b9c2 3bbf
000000d0: 198c afbc b310 033c 9c7d 1bbe 6a3d 1ebc
000000e0: fd37 8a3c fa32 333e 08c5 16be 5fe8 14bb
000000f0: d3bf ac3e 8853 13bc bdff 0f3e f85e 0d3e

layers.1.att_dst f4 [1, 1, 64]
-0.030295908 0.1845652 -8.075829e-05 0.071049154 -0.0011809941 -0.0012859165 0.0071149855 -0.032516427
-0.002555262 0.22632161 0.070463195 0.12128248 -0.010122835 -0.023422223 0.013170931 -0.028108709
0.017557692 0.15831393 -0.041450642 0.25416315 0.0016157734 0.005475399 0.0008623669 0.056968495
0.032976113 -0.0038303642 0.0036006258 -0.0006739804 -0.026591554 -0.0320768 0.15713345 -0.00092368247
-0.0013863315 -0.013204101 0.0021585082 -0.010477839 -0.08657275 -0.0012667316 0.07450461 0.00040648476
0.005837838 0.20024994 -0.0063840747 0.015440055 0.067699336 -0.05838452 -0.033768825 0.22958928
-0.0013349785 0.006904057 -0.048633434 0.25757813 -0.0017692718 0.00028997607 -0.004804493 0.007422365
-0.013207114 -0.037165046 0.003817525 0.011122588 -0.08182552 0.00090310146 -0.008949796 0.006284899
00000000: 202f f8bc a9fe 3c3e c75c a9b8 3882 913d
00000010: 96cb 9aba 338c a8ba d324 e93b f22f 05bd
00000020: 2f76 27bb dac0 673e 024f 903d f362 f83d
00000030: 3fda 25bc f6df bfbc e3ca 573c 3c44 e6bc
00000040: 26d5 8f3c 0c1d 223e 26c8 29bd ac21 823e
00000050: 5cc8 d33a fa6a b33b 7710 623a cc57 693d
00000060: f611 073d d906 7bbb 7af8 6b3b 0fae 30ba
00000070: 88d6 d9bc f662 03bd 97e7 203e 4823 72ba
00000080: 91b5 b5ba 0356 58bc c275 0d3b 3eab 2bbc
00000090: 0e4d b1bd 7608 a6ba df95 983d 761d d539
000000a0: 564b bf3b 520e 4d3e 8031 d1bb 49f8 7c3c
000000b0: f3a5 8a3d 9b24 6fbd 2e51 0abd 7419 6b3e
000000c0: 72fa aeba 6e3b e23b da33 47bd 48e1 833e
000000d0: e9e6 e7ba ee07 9839 026f 9dbb 4f37 f33b
000000e0: a762 58bc 603a 18bd 712f 7a3b 843b 363c
000000f0: 2394 a7bd 1dbe 6c3a 2aa2 12bc 8ef1 cd3b

layers.1.bias f4 [64]
0.0010273468 0.069165215 -0.00801591 -0.030469002 -0.005923434 -0.006144962 -0.04422175 -0.0044541727
-0.028789777 0.051641736 0.049500614 0.014488074 -0.018212944 0.026208915 -0.0137402415 -0.11127666
-0.018112453 0.107206725 -0.019951202 0.07278626 -0.007945363 -0.050651465 0.005584746 0.036194384
-0.04043207 -0.046739448 -0.03796379 -0.007737906 0.046079617 -0.14008129 0.05532315 -0.012232613
-0.047414593 -0.08194689 -0.05644618 -0.088511825 0.08372887 -0.0060142833 0.01220906 -0.06678726
-0.040710453 0.0707637 -0.00907776 -0.110298075 -0.00679387 -0.14522317 0.15072554 0.11256391
-0.004680949 -0.057619803 -0.07608908 0.055164922 -0.028080625 -0.013256189 -0.046720393 -0.04897071
-0.05471871 -0.075052425 -0.040367115 -0.01092425 -0.018518988 -0.027203295 -0.011300018 -0.0911757
00000000: 0aa8 863a 7ea6 8d3d 2a55 03bc 219a f9bc
00000010: 5e19 c2bb ad5b c9bb de21 35bd 4ff4 91bb
00000020: 8ad8 ebbc 4986 533d 28c1 4a3d 635f 6d3c
00000030: 5033 95bc 14b4 d63c c01e 61bc 04e5 e3bd
00000040: 9160 94bc 338f db3d b470 a3bc f610 953d
00000050: 452d 02bc e977 4fbd 3f00 b73b 9040 143d
00000060: 199c 25bd dd71 3fbd eb7f 1bbd 438e fdbb
00000070: fbbd 3c3d 7871 0fbe 879a 623d 4c6b 48bc
00000080: ce35 42bd c5d3 a7bd 1c34 67bd b045 b5bd
00000090: 0b7a ab3d 7713 c5bb 8208 483c c2c7 88bd
000000a0: 01c0 26bd 8fec 903d e3ba 14bc f5e3 e1bd
000000b0: 1d9f debb 62b5 14be cc57 1a3e e887 e63d
000000c0: a562 99bb be02 6cbd 97d4 9bbd 9df4 613d
000000d0: 5709 e6bc 7d30 59bc e25d 3fbd 8395 48bd
000000e0: ba20 60bd 16b5 99bd fd57 25bd a0fb 32bc
000000f0: 22b5 97bc 72d9 debc b623 39bc 53ba babd

layers.1.lin.weight f4 [64, 64]
0.21298617 0.004219992 0.042161394 -0.005300137 0.1816473 0.0011747695 0.04179299 -0.0008791773
-0.10701905 0.29212344 -0.000906729 0.15161824 -0.071302846 -0.016189275 -2.416308e-06 1.1178946e-07
0.13448778 6.524921e-08 -0.06718773 -0.021169655 0.0015050343 -0.013260475 0.18407813 -0.00051091786
-0.10583523 0.014791668 -0.0019499355 0.14382966 0.21882638 9.759785e-07 0.19733489 -0.040325843
-0.16574933 0.0074444204 -0.10357084 0.11247301 0.23555396 0.2117381 0.023308426 4.2457152e-08
0.12245201 -0.011319514 0.020057984 0.051072124 -0.03558258 -0.01438044 -0.045183852 -0.1471415
4.090208e-13 0.0338178 -0.07402854 -0.007126447 -0.017134566 -0.003686845 -0.016491367 -0.00028727905
0.036444716 -0.016355623 -0.06783361 -0.10019845 0.09317631 0.062134393 -0.00042168543 0.052808676
-0.022580301 -0.17558706 0.040781558 -0.00019007473 -0.22580943 0.00975309 0.022548899 0.01818295
0.2043697 -0.2360197 -0.0012083057 -0.11675458 0.24210748 0.015167031 -3.8454423e-06 1.6359338e-06
-0.25542927 -1.4643321e-05 0.027516978 -0.0010705047 0.035774205 0.0658828 -0.07971067 0.026742404
0.26075983 0.03364926 5.49064e-05 -0.017831527 -0.0365871 -2.3755588e-06 -0.11676469 -0.020545807
-0.0833423 0.039921485 0.22272979 -0.14607958 -0.20061824 -0.06907648 0.04456031 4.434718e-08
-0.044274844 0.032426532 -0.002835219 -0.059100732 0.029543165 0.02803568 -0.030546518 -0.06938076
9.1720034e-12 0.13074747 -0.056091677 0.03420211 0.024958413 0.009814879 0.037760615 -0.011081751
-0.19513111 0.068724684 0.22744533 0.13037795 -0.12641752 -0.039268117 0.00092560094 0.093583405
-0.00054604874 0.0005816137 0.00023560149 2.0112657e-06 0.0004304922 -2.917544e-06 5.7302223e-05 -9.9342105e-06
-7.221836e-05 0.00078520924 -1.5305905e-06 0.0006961134 -0.00031069605 -2.1625823e-05 -3.4153138e-07 7.0529573e-09
0.0013424599 -6.8169568e-09 -0.0002831944 5.7526868e-05 -3.0754152e-06 0.000107150074 0.00015804819 -4.334836e-06
-0.00038177948 -0.00038527432 1.855865e-05 -3.851204e-05 -1.2598553e-05 -2.3535063e-09 0.0005688811 0.00014004819
0.00017382894 -1.52672e-05 -0.0003603619 0.0008296763 0.0006892253 0.000101262594 -9.0100475e-06 -2.0689273e-10
0.00013877769 -1.8910546e-09 3.7018349e-06 0.00024230636 -0.00024915277 -0.00014419355 6.556945e-05 2.6334688e-05
4.2028406e-14 -0.00010432093 0.00045286713 7.427896e-05 -7.0554397e-06 -2.9273616e-08 0.00018472502 -8.8818e-07
0.0015703688 -3.8958882e-05 -1.2686391e-05 -0.000162437 0.0006345006 -4.7317775e-05 -1.748746e-05 5.9217273e-05
0.30008444 -0.0054091304 0.18066603 -0.002147144 0.021715753 -0.00025903343 0.03879313 -0.006189015
0.003358299 0.2247773 -0.0037827562 0.031135608 -0.03699087 -0.012825667 2.684897e-06 2.7041878e-08
-0.015838508 4.363731e-06 0.04558246 -0.02341569 -0.0007189888 0.15192355 0.1576848 -0.0020315447
-0.08700277 0.13964958 0.0022248896 0.2728035 0.3297978 2.133439e-06 0.19751875 -0.04836954
-0.19770537 0.2099443 -0.03806341 0.049500857 0.07619747 0.2742603 0.008404266 -1.1834692e-08
0.11038627 0.002264455 0.0070464686 0.009024691 -0.0058972286 0.035740353 -0.07370542 -0.19628361
-1.05420284e-13 0.027248241 -0.097510606 0.07380104 -0.020758782 -0.0026838758 0.060332116 0.00025572663
-0.05748863 -0.0031332306 -0.040187635 -0.060459454 0.07101477 0.090776056 0.00039846252 0.24105236
00000000: 0c19 5a3e dc47 8a3b 6db1 2c3d c6ac adbb
00000010: c001 3a3e b9fa 993a 202f 2b3d 9778 66ba
00000020: ce2c dbbd 3491 953e 8eb1 6dba d041 1b3e
00000030: 3a07 92bd 5f9f 84bc db27 22b6 e810 f033
00000040: 2ab7 093e 221f 8c33 b899 89bd fc6b adbc
00000050: 9244 c53a 7742 59bc fa7e 3c3e 1eef 05ba
00000060: 24c0 d8bd c158 723c fa94 ffba 1548 133e
00000070: 0614 603e 5efe 8235 2812 4a3e b62c 25bd
00000080: 31ba 29be 53f0 f33b f31c d4bd 4058 e63d
00000090: 0f35 713e dfd1 583e 50f1 be3c 225a 3633
000000a0: 1fc8 fa3d 7c75 39bc a450 a43c 0131 513d
000000b0: 0abf 11bd f09b 6bbc b412 39bd 43ac 16be
000000c0: 1c42 e62a 8984 0a3d 469c 97bd f884 e9bb
000000d0: ca5d 8cbc ff9e 71bb e718 87bc f19d 96b9
000000e0: 0e47 153d 3afc 85bc 59ec 8abd d834 cdbd
000000f0: 39d3 be3d a280 7e3d a915 ddb9 e94d 583d
00000100: 53fa b8bc 18cd 33be 900a 273d cc4e 47b9
00000110: 963a 67be 6dcb 1f3c 78b8 b83c 69f4 943c
00000120: 4a46 513e 26af 71be 0360 9eba 061d efbd
00000130: 06eb 773e 247f 783c 1908 81b6 4292 db35
00000140: a0c7 82be 96ac 75b7 496b e13c 2d50 8cba
00000150: f987 123d 90ed 863d 593f a3bd e312 db3c
00000160: 5082 853e ced3 093d 4c4b 6638 6c13 92bc
00000170: 5bdc 15bd ca6b 1fb6 5322 efbd ae4f a8bc
00000180: 5eaf aabd b684 233d 4713 643e e395 15be
00000190: de6e 4dbe f877 8dbd df84 363d 3d78 3e33
000001a0: 8a59 35bd afd1 043d 15cf 39bb 9c13 72bd
000001b0: 8204 f23c 15ab e53c b13c fabc 8017 8ebd
000001c0: 085b 212d aae2 053e 63c0 65bd 8317 0c3d
000001d0: 9675 cc3c 96ce 203c e0aa 1a3d 3c90 35bc
000001e0: 73d0 47be 87bf 8c3d 6ee7 683e cc81 053e
000001f0: 9873 01be 9bd7 20bd 07a4 723a a8a8 bf3d
00000200: b624 0fba 6f77 183a cb0b 7739 48f9 0636
00000210: afb3 e139 06cb 43b6 cb57 7038 1cab 26b7
00000220: f073 97b8 80d6 4d3a b06e cdb5 617b 363a
00000230: ebe4 a2b9 1a69 b5b7 b75b b7b4 7856 f231
00000240: 7bf5 af3a 963a eab1 b579 94b9 0149 7138
00000250: 3b63 4eb6 c2b5 e038 bdb9 2539 f573 91b6
00000260: 9329 c8b9 a5fe c9b9 66ae 9b37 fd87 21b8
00000270: 605e 53b7 52bb 21b1 f720 153a e6d9 1239
00000280: da45 3639 1012 80b7 f5ee bcb9 a27e 593a
00000290: 20ad 343a f15c d438 dc29 17b7 207b 63af
000002a0: da84 1139 c9f3 01b1 0a6d 7836 9e13 7e39
000002b0: b8a0 82b9 a932 17b9 5582 8938 50e9 dc37
000002c0: 7447 3d29 dfc6 dab8 cc6e ed39 37c6 9b38
000002d0: c4bd ecb6 5d75 fbb2 bfb2 4139 446b 6eb5
000002e0: d5d4 cd3a c867 23b8 a2d7 54b7 da53 2ab9
000002f0: 9d54 263a 1377 46b8 09b2 92b7 1060 7838
00000300: aba4 993e 133f b1bb 8400 393e 19b7 0cbb
00000310: 3ce5 b13c e1ce 87b9 8ce5 1e3d 39cd cabb
00000320: e816 5c3b 052c 663e 1ee8 77bb 1a10 ff3c
00000330: bd83 17bd bf22 52bc 2e2e 3436 b849 e832
00000340: c2bf 81bc 2a6c 9236 acb4 3a3d 43d2 bfbc
00000350: 867a 3cba d991 1b3e 2078 213e aa23 05bb
00000360: 822e b2bd 4d00 0f3e 74cf 113b e6ac 8b3e
00000370: 42db a83e 342c 0f36 5b42 4a3e 241f 46bd
00000380: 4773 4abe a3fb 563e 61e8 1bbd 69c1 4a3d
00000390: 6b0d 9c3d d96b 8c3e 0cb2 093c 8751 4bb2
000003a0: 3212 e23d 4067 143b 10e6 e63b 4cdc 133c
000003b0: 8a3d c1bb 7a64 123d def2 96bd 92fe 48be
000003c0: a862 eda9 b437 df3c a4b3 c7bd 0025 973d
000003d0: 520e aabc f7e3 2fbb cf1e 773d 0c13 8639
000003e0: 3379 6bbd e356 4dbb ca9b 24bd 55a4 77bd
000003f0: 3170 913d cce8 b93d bce8 d039 6ed6 763e

layers.2.att_src f4 [1, 1, 64]
-0.019017255 -0.24071218 -0.23249857 -0.00023147679 -0.06748985 -0.000313611 0.00012424581 -0.010704951
-0.03107117 -0.0071437513 -0.00011476743 0.0126848 -0.0012958187 0.4526533 0.09462347 -0.25158924
-0.002077111 -0.1473652 -0.09889531 -0.22383368 -0.0223835 -0.0110950135 0.052610934 -0.0010952622
-0.071419254 -0.00797818 -0.00046365667 -0.037328973 -0.009491807 -0.082825065 -0.070885584 -0.0022744278
-0.0101120435 -0.013129155 -9.58854e-05 -0.13855422 -0.13537788 -0.005473698 -0.00037535344 -0.011451423
0.048920427 0.0004157045 0.00053794624 -0.21041137 -0.017246554 0.11955233 -0.18804991 -0.2613543
-0.008560994 -0.005964308 -0.0057880976 -0.06556977 -0.0047675963 -0.16628423 -0.00020981727 -0.20366298
-0.0005483906 -0.005684771 -0.11565665 -0.0012433794 0.01341864 -0.10899085 -0.21002892 -0.19654486
00000000: 13ca 9bbc 417d 76be 1b14 6ebe 94b8 72b9
00000010: 1e38 8abd 286c a4b9 fb47 0239 d263 2fbc
00000020: f788 febc 2116 eabb 4baf f0b8 e8d3 4f3c
00000030: 76d8 a9ba 2cc2 e73e f3c9 c13d 4ed0 80be
00000040: 2420 08bb e7e6 16be a089 cabd a834 65be
00000050: 9a5d b7bc dcc7 35bc 907e 573d e78e 8fba
00000060: 4244 92bd eab6 02bc f216 f3b9 44e6 18bd
00000070: 8683 1bbc 30a0 a9bd 762c 91bd 910e 15bb
00000080: fcac 25bc ab1b 57bc 1516 c9b8 28e1 0dbe
00000090: 80a0 0abe b55c b3bb 16cb c4b9 c09e 3bbc
000000a0: c960 483d eaf2 d939 f604 0d3a 1476 57be
000000b0: a548 8dbc dad7 f43d 2890 40be 3bd0 85be
000000c0: 6943 0cbc 3e70 c3bb 15aa bdbb 7249 86bd
000000d0: 7f39 9cbb 6a46 2abe 6502 5cb9 078d 50be
000000e0: dfc1 0fba 5147 babb 65dd ecbd e4f8 a2ba
000000f0: dbd9 5b3c 9836 dfbd d211 57be 0e43 49be

layers.2.att_dst f4 [1, 1, 64]
-0.06109738 0.16877429 -0.15103684 -0.0011149524 0.016160958 -0.0014243623 0.00032347252 -0.015709726
-0.001642083 -0.008399851 -0.0006951075 -0.03210284 -0.009761143 -0.015642293 -0.02975399 -0.11371659
-0.00029934608 -0.12776805 -0.077461675 -0.18468209 -0.16525598 -0.014128343 -0.026452394 -0.011556192
-0.057087295 -0.0062292684 -0.0008916773 -0.04825985 -0.019108653 -0.17465532 -0.15390503 -0.0030018855
-0.009454009 -0.023063675 -0.00047613084 0.10724346 -0.110704064 -0.007131026 -0.00025430857 -0.009522217
-0.03475423 -0.00040947954 0.12047522 -0.14992495 -0.04458362 -0.05616082 -0.114834316 -0.18917713
-0.01382177 -0.00620708 -0.028895866 -0.004459967 -0.0051345453 -0.13425873 -0.00045739755 0.19576055
0.008608442 -0.0044589136 -0.08614624 -0.0043212827 -0.034319956 0.277603 -0.13393639 0.26700777
00000000: 3f41 7abd 2bd3 2c3e 67a9 1abe 9823 92ba
00000010: fc63 843c abb1 baba bf97 a939 afb1 80bc
00000020: 2a3b d7ba 879f 09bc e037 36ba 447e 03bd
00000030: 33ed 1fbc 4424 80bc a4be f3bc 3ee4 e8bd
00000040: 8df1 9cb9 a1d5 02be 3aa4 9ebd 4d1d 3dbe
00000050: dd38 29be 917a 67bc b1b2 d8bc 2f56 3dbc
00000060: 5ed4 69bd e41e ccbb 73bf 69ba 1fac 45bd
00000070: c089 9cbc d8d8 32be 4899 1dbe 48bb 44bb
00000080: fde4 1abc 08f0 bcbc 33a1 f9b9 76a2 db3d
00000090: d0b8 e2bd 62ab e9bb b854 85b9 1303 1cbc
000000a0: 745a 0ebd 6aaf d6b9 b6bb f63d ed85 19be
000000b0: 509d 36bd e308 66bd 412e ebbd a6b7 41be
000000c0: b574 62bc c364 cbbb 06b7 ecbc ea24 92bb
000000d0: b03f a8bb 1f7b 09be dcce efb9 7475 483e
000000e0: 6c0a 0d3c 141c 92bb 716d b0bd 8c99 8dbb
000000f0: 1593 0cbd fb21 8e3e 9f26 09be 3eb5 883e

layers.2.bias f4 [64]
-0.035513572 -0.15816647 0.07959254 -0.016924325 -0.11258317 -0.008282768 -0.034839503 -0.03303625
-0.11000295 -0.03277981 -0.0016423395 0.052081447 -0.039662257 -0.098665744 -0.09342004 0.038337905
-0.0015694895 0.060755536 0.022133563 0.10196439 0.06891913 -0.04437822 -0.079211384 -0.018131789
-0.09447539 -0.056098897 -0.00616721 -0.035572093 -0.04050736 0.097333185 0.068508916 -0.008592469
-0.055837575 -0.024335764 -0.019509405 -0.053275842 0.051824242 -0.022412132 -0.018424535 0.0022746867
-0.08034458 -0.0036470755 -0.07815144 0.064821996 -0.031421673 -0.08446104 0.028592661 0.06346574
-0.03744098 -0.023900578 -0.02897977 -0.044588957 -0.009480845 0.05299881 -0.012846997 -0.06931088
-0.011218157 -0.03224012 0.027141754 -0.030651221 -0.063640736 -0.021537676 0.036251403 -0.037997313
00000000: ae76 11bd 64f6 21be 6a01 a33d e2a4 8abc
00000010: 0192 e6bd 72b4 07bc deb3 0ebd 0551 07bd
00000020: 3a49 e1bd 1f44 06bd c543 d7ba 5b53 553d
00000030: e474 22bd 4411 cabd 0253 bfbd 3508 1d3d
00000040: 54b7 cdba ccda 783d 7251 b53c b5d2 d03d
00000050: 7925 8d3d f0c5 35bd 9439 a2bd 1e89 94bc
00000060: 507c c1bd f5c7 65bd 4f16 cabb 0bb4 11bd
00000070: 0ceb 25bd 9f56 c73d 674e 8c3d 6dc7 0cbc
00000080: f1b5 64bd cc5b c7bc 30d2 9fbc c537 5abd
00000090: a845 543d a699 b7bc 0def 96bc e912 153b
000000a0: b38b a4bd c603 6fbb dd0d a0bd 65c1 843d
000000b0: 03b4 00bd e9f9 acbd 283b ea3c 53fa 813d
000000c0: b75b 19bd 25cb c3bc fc66 edbc e9a2 36bd
000000d0: 8c55 1bbc 4815 593d 367c 52bc ddf2 8dbd
000000e0: 5ccc 37bc 370e 04bd 6258 de3c 4518 fbbc
000000f0: 1356 82bd c86f b0bc 5a7c 143d 12a3 1bbd

layers.2.lin.weight f4 [64, 64]
-0.011716306 -0.006105435 7.609061e-06 -0.0053717024 -1.8682432e-07 6.142198e-08 -0.00015085607 -0.0051128496
-3.375647e-08 -0.006152423 -0.0031077506 -0.003967031 0.00012182331 -0.006543715 -0.008544059 -4.485672e-05
0.0038202638 -0.005864575 -0.0042316914 -0.0065750177 -1.766592e-05 -0.005245179 -0.005261947 -0.0025503568
0.0010746503 2.2937834e-07 -0.0044909003 1.5591188e-05 -0.004627509 0.00011389924 -0.005449362 -2.5487283e-08
-3.5357916e-05 -0.00010697977 -0.00037712365 0.000109286644 -0.02567492 4.7961812e-09 -0.0026028887 3.7035967e-05
-1.6104803e-05 -0.0061025694 -0.004169949 -6.144738e-05 -0.009473694 -7.2218325e-05 -0.04014969 -0.0069582886
2.788589e-05 1.6559148e-05 0.00084285176 -0.0064304187 -2.8286759e-05 -8.1330516e-05 4.3310865e-05 0.000102966485
-6.872448e-06 -0.0006348369 -2.1625965e-06 -0.001182779 -0.0063672806 -5.8592723e-06 -0.005826508 -0.0058032447
0.13156281 -0.10660087 5.238441e-06 0.3076056 6.097184e-06 1.1488493e-05 -0.0019348095 0.014293738
4.6875087e-07 -0.11821705 -0.040402155 -0.059049737 0.0005777698 -0.0076951324 0.3955335 -0.0004272348
-0.0044179074 -0.09743922 0.09032665 -0.12452202 -4.082009e-05 0.32681105 0.26215053 -0.03689412
0.036750652 -1.2772091e-05 0.28780288 0.0009090246 -0.04209475 0.00138527 -0.09143752 -6.835593e-07
-0.00037381324 0.053094685 0.0067903525 -0.004735402 -0.18947949 -1.8771892e-07 -0.037139844 0.00076726795
5.1586343e-05 -0.11028485 0.20926452 -0.0007572563 0.45435056 -0.0009957359 -0.047398955 -0.12942727
-0.00038486696 -0.0041572237 -0.009117194 -0.10081511 -5.32213e-06 0.0004299112 0.00039613046 0.0010321694
1.2297635e-06 -0.0071350504 0.00079465576 0.23100197 0.017122962 0.0001183491 0.2924579 0.30229566
-0.085189186 0.23143625 0.0021570635 0.01209746 1.0946501e-06 -1.4091208e-07 -0.0057029943 -0.07642867
-2.491922e-07 0.16312599 -0.06877393 0.04223453 0.00029121828 -0.061686028 0.023241488 0.0005305025
0.04827425 0.23316891 -0.06144234 0.19912936 7.713881e-06 0.022953536 -0.016385065 0.04363032
0.013199773 8.735102e-06 -0.0045657796 3.53035e-05 -0.07836962 -0.0007123551 0.09152317 1.910021e-06
0.00020341385 -0.005109205 -0.0019522758 -0.027262164 -0.25660658 -5.958441e-07 0.11609834 -0.005861367
-3.8031325e-05 -0.0006161805 -0.010499656 -2.690528e-05 0.06797842 0.011994044 -0.32891545 0.2393866
0.00033035566 0.01335427 -0.020543743 0.0023930506 0.00032318747 0.00027737758 -0.0009599845 -0.00027092051
0.0021154878 -0.013956379 -0.0020903524 0.016781477 -0.07135884 8.0168065e-06 -0.02297713 0.0035635564
0.0004429997 -0.00028404026 -1.5037764e-07 0.00018050637 -1.1906058e-07 -8.125083e-08 -9.431593e-05 0.00033237782
-8.8778e-09 -0.0002118154 -0.0003740476 -0.00034353076 1.5823059e-06 0.0005514442 0.0004372852 -2.7628193e-05
-4.4234694e-05 -0.00031208346 0.00047007913 -0.00025501905 -6.081157e-06 0.00024423355 0.00016544115 -0.00042972763
-3.9115992e-05 1.7370796e-08 0.00013213578 -2.0791947e-06 0.00050404115 -0.00013574005 -0.0004212345 1.5031662e-07
-1.7822178e-05 2.9232295e-05 0.00012865073 -2.0429361e-05 0.0020874075 3.4204934e-09 -0.00047491334 -1.40598295e-05
-7.059871e-07 -0.00023726808 6.828896e-06 2.157906e-05 0.0002125223 -6.3528314e-06 -0.0008412271 -0.00023913298
-1.5913824e-07 4.194226e-05 -0.00020987872 -0.0002711126 -1.89184e-05 -8.603542e-06 8.445417e-06 -3.0354317e-06
-3.4926308e-07 0.00013945918 8.60969e-06 0.00023476196 0.00078305195 -1.6151805e-06 0.00029105783 0.00023243946
00000000: c0f5 3fbc 1a10 c8bb 5651 ff36 1b05 b0bb
00000010: e199 48b4 17e7 8333 1e2f 1eb9 b189 a7bb
00000020: a2fb 10b3 449a c9bb 67ab 4bbb defd 81bb
00000030: 647b ff38 a96c d6bb 61fc 0bbc 8924 3cb8
00000040: 645d 7a3b 9f2b c0bb 00aa 8abb 3f73 d7bb
00000050: 4631 94b7 c0df abbb 696c acbb e323 27bb
00000060: 48db 8c3a 0a4b 7634 6728 93bb d2c9 8237
00000070: 5ca2 97bb 30dd ee38 9090 b2bb 21ef dab2
00000080: 464d 14b8 545a e0b8 aeb8 c5b9 d230 e538
00000090: 3654 d2bc a8cb a431 3a95 2abb 1157 1b38
000000a0: cd18 87b7 10f8 c7bb 11a4 88bb 50dd 80b8
000000b0: 8d37 1bbc eb73 97b8 0074 24bd 5b02 e4bb
000000c0: 7eec e937 80e8 8a37 d3f2 5c3a 43b6 d2bb
000000d0: 5a49 edb7 fd8f aab8 b0a8 3538 b6ef d738
000000e0: e199 e6b6 2f6b 26ba 2021 11b6 7a07 9bba
000000f0: 9fa4 d0bb c49a c4b6 4bec bebb 2529 bebb
00000100: 67b8 063e 8f51 dabd dec5 af36 7b7e 9d3e
00000110: 6996 cc36 b4be 4037 6f99 fdba 4830 6a3c
00000120: a1a8 fb34 c81b f2bd bb7c 25bd 23de 71bd
00000130: 7a75 173a 7327 fcbb 5e83 ca3e 7cfe dfb9
00000140: 18c4 90bb 378e c7bd 2efd b83d 6705 ffbd
00000150: 3d36 2bb8 c753 a73e 9838 863e 4a1e 17bd
00000160: da87 163d b747 56b7 e65a 933e 9c4b 6e3a
00000170: 8b6b 2cbd f391 b53a 9843 bbbd d67d 37b5
00000180: 5dfc c3b9 d079 593d 9b81 de3b 6e2b 9bbb
00000190: e906 42be c98f 49b4 f31f 18bd 7b22 493a
000001a0: 6a5e 5838 06dd e1bd 7049 563e 9c82 46ba
000001b0: a3a0 e83e 5a83 82ba 6825 42bd 9588 04be
000001c0: f8c7 c9b9 5239 88bb 4960 15bc 2778 cebd
000001d0: c094 b2b6 b465 e139 bbaf cf39 dc49 873a
000001e0: 5a0e a535 24cd e9bb 7250 503a c88b 6c3e
000001f0: 7445 8c3c 3032 f838 0bbd 953e 7fc6 9a3e
00000200: ab77 aebd a0fd 6c3e 855d 0d3b 6d34 463c
00000210: e4eb 9235 9e4d 17b4 2fe0 babb a286 9cbd
00000220: b7c8 85b4 800a 273e 59d9 8cbd 1dfe 2c3d
00000230: a8ae 9839 7daa 7cbd ef64 be3c 6c11 0b3a
00000240: 38bb 453d d5c3 6e3e f7aa 7bbd 91e8 4b3e
00000250: de6a 0137 0e09 bc3c f939 86bc b5b5 323d
00000260: dc43 583c fa8c 1237 899c 95bb d812 1438
00000270: 4080 a0bd 57bd 3aba 8070 bb3d e92d 0036
00000280: 7d4b 5539 1e6b a7bb 81e3 ffba e754 dfbc
00000290: f061 83be 18f2 1fb5 f7c4 ed3d b610 c0bb
000002a0: d383 1fb8 2c87 21ba c006 2cbc a6b2 e1b7
000002b0: 4538 8b3d ab82 443c 9b67 a8be c321 753e
000002c0: 9633 ad39 decb 5a3c 5a4b a8bc bad4 1c3b
000002d0: 7d71 a939 fd6c 9139 78a7 7bba 560a 8eb9
000002e0: ffa3 0a3b 4ca9 64bc 4bfe 08bb 4f79 893c
000002f0: 9524 92bd ec7f 0637 893a bcbc 8e8a 693b
00000300: 6a42 e839 3deb 94b9 7e77 21b4 4f46 3d39
00000310: 3fae ffb3 1e7c aeb3 7bcb c5b8 ff42 ae39
00000320: fa84 18b2 c31a 5eb9 d21b c4b9 eb1b b4b9
00000330: 9e5f d435 cb8e 103a 6d43 e539 18c3 e7b7
00000340: a488 39b8 229f a3b9 f474 f639 14b4 85b9
00000350: be0c ccb6 790c 8039 457a 2d39 114d e1b9
00000360: 7a10 24b8 c936 9532 ee8d 0a39 4b88 0bb6
00000370: a121 043a 7155 0eb9 23d9 dcb9 b866 2134
00000380: d680 95b7 e037 f537 6be6 0639 b85f abb7
00000390: e3cc 083b f50d 6b31 cafd f8b9 82e2 6bb7
000003a0: 1083 3db5 2acb 78b9 c523 e536 ae04 b537
000003b0: 85d8 5e39 682a d5b6 cc85 5cba c5bf 7ab9
000003c0: 96df 2ab4 29eb 2f38 e412 5cb9 1e24 8eb9
000003d0: f4b2 9eb7 ee57 10b7 cab0 0d37 52b4 4bb6
000003e0: 5a82 bbb4 ca3b 1239 5672 1037 6f2a 7639
000003f0: ba45 4d3a 2ec9 d8b5 1f99 9839 feba 7339

layers.3.att_src f4 [1, 1, 2]
-0.3711011 0.26409274
00000000: f700 bebe 2a37 873e

layers.3.att_dst f4 [1, 1, 2]
0.115549795 -0.029332334
00000000: 5fa5 ec3d 5d4a f0bc

layers.3.bias f4 [2]
-0.06291617 0.062916175
00000000: 31da 80bd 32da 803d

layers.3.lin.weight f4 [2, 64]
-0.04664081 0.30958533 -0.230451 -0.0020717839 0.011766692 -0.032544043 -0.004434168 -0.01031131
-0.094526686 -0.01438697 -0.0024904704 -0.09224741 0.024146786 -0.17276683 -0.0052380934 0.059526514
0.01782482 -0.26941624 0.002457506 -0.2802572 -0.019355686 -0.07448368 -0.018571364 0.04109669
0.02340595 -0.03587311 -0.0001744966 0.0480091 0.00012253555 -0.35328022 -0.2199587 -0.0009471427
-0.04105656 -0.023553679 -0.0029042587 0.059666242 -0.20594908 0.005955879 -0.010284902 0.100577354
-0.0052977265 0.019589925 0.13236128 -0.15906167 -0.028049508 0.0052821888 -0.2332994 -0.3605622
-0.005647756 -0.028043605 -0.030957786 0.010393587 -0.012943921 -0.055924892 -0.0034687694 0.25168344
-0.029998733 0.021831827 -0.085067816 0.0018777375 0.0033351965 0.17134932 -0.24681643 0.3745734
0.045431085 -0.45154175 0.23689581 0.0022553944 -0.01343494 -0.028022092 0.012029217 -0.016849136
0.0946493 0.015995916 0.0008465146 0.09137312 -0.0059344647 0.17896597 0.012467171 0.20088129
0.013145925 0.13426486 0.052499596 0.3381623 0.33832625 0.051090833 -0.0069596595 0.049235452
-0.01895105 0.009937976 0.00019858226 0.0770253 -0.0001230347 0.15282136 0.28117067 0.0010767245
0.041441843 0.025555048 0.0031422088 -0.18830484 0.012340928 -0.0060222065 0.0098438375 0.091392376
-0.01342207 0.023197588 -0.13319933 0.3363503 0.027572092 0.014569934 -0.06372354 0.21473265
0.013372711 -0.052087285 0.030788679 0.00085097254 -0.009200329 0.20788926 0.0039402344 -0.35876638
-0.03805374 0.009942655 -0.025982874 0.008843094 -0.0033528537 -0.41622016 0.020727575 -0.45179388
00000000: 6f0a 3fbd f881 9e3e 59fb 6bbe c4c6 07bb
00000010: 15c9 403c e74c 05bd 7f4c 91bb c5f0 28bc
00000020: 3597 c1bd 53b7 6bbc 2937 23bb 36ec bcbd
00000030: 7bcf c53c cae9 30be 50a4 abbb 13d2 733d
00000040: 5b05 923c edf0 89be 1c0e 213b df7d 8fbe
00000050: d18f 9ebc e68a 98bd f922 98bc 0155 283d
00000060: d6bd bf3c afef 12bd 13f9 36b9 31a5 443d
00000070: e37c 0039 25e1 b4be da3c 61be ac49 78ba
00000080: ec2a 28bd a5f3 c0bc 6055 3ebb 9764 743d
00000090: 51e4 52be 8929 c33b 0182 28bc 80fb cd3d
000000a0: 8d98 adbb 0d7b a03c b789 073e 10e1 22be
000000b0: 15c8 e5bc 3616 ad3b 0ae6 6ebe 9c9b b8be
000000c0: d010 b9bb b4bb e5bc 2f9b fdbc dd49 2a3c
000000d0: bd12 54bc 8011 65bd 4b54 63bb a7dc 803e
000000e0: e7bf f5bc a9d8 b23c 0938 aebd 6a1e f63a
000000f0: 5093 5a3b 3276 2f3e 72bd 7cbe 16c8 bf3e
00000100: f215 3a3d 7b30 e7be d194 723e 3dcf 133b
00000110: 391e 5cbc 968e e5bc 3116 453c 3307 8abc
00000120: 7ed7 c13d de09 833c a2e8 5d3a d521 bb3d
00000130: e675 c2bb db42 373e 1b43 4c3c d3b3 4d3e
00000140: 0162 573c ba7c 093e d109 573d 9c23 ad3e
00000150: 1939 ad3e 9f44 513d db0d e4bb 1dab 493d
00000160: 3b3f 9bbc e4d2 223c 853a 5039 71bf 9d3d
00000170: e002 01b9 347d 1c3e 9af5 8f3e e120 8d3a
00000180: ecbe 293d d258 d13c 84ed 4d3b fcd2 40be
00000190: 9b31 4a3c ee55 c5bb 0c48 213c ed2b bb3d
000001a0: 3ee8 5bbc de08 be3c 6865 08be 1b36 ac3e
000001b0: dede e13c bcb6 6e3c 7d81 82bd e0e2 5b3e
000001c0: 3719 5b3c 7a59 55bd 8a38 fc3c cd13 5f3a
000001d0: fabc 16bc ece0 543e 151d 813b 3ab0 b7be
000001e0: 3dde 1bbd 85e6 223c 09da d4bc a0e2 103c
000001f0: 8dbb 5bbb cf1a d5be e0cc a93c 8751 e7be
