visualization/models/GCN_model.pth (torch, 39320 bytes, 8 tensors)

layers.0.bias f4 [64]
00000000: d969 a2ba 71e8 a4bb 8ca1 0dbd ec2a 683c
00000010: 60ce bbbd 3532 dcba 7546 d3bd 829c 54bd
00000020: b8a8 3438 dbcc 49bd c201 2c3c a56f 69bd
00000030: 15ab 06bd e67a 2abc 5f06 10bd fd74 803d
00000040: 181d 97bb 107c f0bc 93c8 6dbc 1a80 e6b9
00000050: 164c 04bd 653b 173d bc5c 89bd 9378 e83d
00000060: e591 26bd 0a23 aaba 6293 03bd 4700 39bc
00000070: 0b0d 88bd c019 edbb f5f0 8bbd cacd 803d
00000080: 8f56 b2bb 1ac1 7ebd e3bd f0bd 535d 45bc
00000090: 8e79 3cb6 4449 1ebe bedc 04bd f1da 01bc
000000a0: 867c 383d 840e 5bbd 4e96 a8b9 da9a b33b
000000b0: 2c3c 96bc cd1e a9bb cba6 ebbd 7e10 10bd
000000c0: cc5c 0dba d436 393d 4efe 14bd b895 fc3c
000000d0: 5f3c 1b3e 2815 53bd 5c43 c9bd f920 44bd
000000e0: 15bc cc3d 7ed9 383d e6e1 5cbb 5509 a8b9
000000f0: 464c 3fb7 8b9b 183d 8ea5 983c 3627 1abd
-0.0012391164 -0.005032592 -0.03457789 0.01417039 -0.09170222 -0.0016799631 -0.10316173 -0.05190707
4.3072476e-05 -0.04926763 0.010498466 -0.05699124 -0.032878 -0.010405278 -0.035162326 0.06272314
-0.0046116225 -0.029356033 -0.014513153 -0.00043964462 -0.032299124 0.036921877 -0.06707141 0.11351123
-0.04066648 -0.0012980413 -0.032122977 -0.01129157 -0.06643113 -0.0072357357 -0.06833068 0.06289251
-0.0054424475 -0.062195875 -0.11754968 -0.012046176 -2.8084937e-06 -0.15457636 -0.03243708 -0.007925735
0.04504063 -0.05348064 -0.00032155443 0.005481106 -0.018339239 -0.0051611424 -0.115064226 -0.03517198
-0.0005392551 0.045218304 -0.036375336 0.03083311 0.15159748 -0.051533848 -0.09827301 -0.047883008
0.09996811 0.04512929 -0.0033703982 -0.0003205041 -1.1402246e-05 0.037257712 0.01863363 -0.03763505

layers.0.lin.weight f4 [64, 7]
00000000: e264 5aba 66cf 3835 a884 8f35 f067 8133
00000010: 6d29 59ab 924a db34 0e65 f1b2 1b24 55bb
00000020: 2102 d1a9 afb3 eaab 861a 3eaa c0ce 55a6
00000030: a406 0e29 ad8d 79aa af44 9c3e 8541 62bf
00000040: bb03 063f 0b96 0fbd ade9 322b 7dcb 0e3f
00000050: 6cdc 013f 5b34 e0bd 07bb 143f cfb9 343e
00000060: e5b9 ad3e 2b08 faaa afba 0cbe e518 32bd
00000070: 5e7a 99be 76d7 7f3f ae4d 16bf 336d 77b9
00000080: 1248 83a9 e623 9032 98aa 38ab 8e91 86ba
00000090: fcc1 8d2c 5154 d6ac ce7a b8aa dc7b 0da9
000000a0: e0ef 2d2c 6c5c cdaa a56b be3d 6b4e 20bc
000000b0: 63da 8c3a 8887 87b0 b873 aaa9 b4de 9e30
000000c0: dcac d82f 409f 1c3d 5fd6 09b8 58e4 0933
000000d0: 5319 a2b0 8e8a 8c29 4098 8830 9cd7 7830
000000e0: 1a37 0cba e547 bab3 cb02 3eb5 c178 9d33
000000f0: 8127 8ca9 8b27 9c33 21f9 a2b2 2617 0b3c
00000100: ce85 3eb9 cf30 8cb8 0279 152c 100e 1a2a
00000110: ac21 082b c141 952a 2ee6 9f3e c8f5 5ebf
00000120: 4f58 ff3e 477e 24bd 719a 3daa 144e 013f
00000130: bda6 013f 198e 813e 6749 e1bd a195 d0bd
00000140: 38df e2be 521c 18a9 45ae b9bd 58fa 9ebd
00000150: ae30 3e3e d4cc b3be a22b 783e 63bc fe3c
00000160: 48ce 2e28 caae 253e 06f5 663e 9d7b 85ba
00000170: 2d5f adb8 c23b 9e38 f727 20b1 224f f929
00000180: 2ed7 90b0 9ae4 16ac fd00 263c a888 fd36
00000190: 54d9 f2b5 f552 872b 0738 3a2b 0648 f8aa
000001a0: ac2e 532a bd9d b2bd 060c 483f cd3f a9be
000001b0: 2095 3e3f 43a5 9e2a 27c1 863e e120 743e
000001c0: 3670 cbb3 b3c0 cb36 de90 cc34 579a 8e2a
000001d0: 7aa8 382a 4c02 81ab bbb1 1bab 7297 9ebe
000001e0: a750 963e 296c 203f 222a b3aa 3a77 f128
000001f0: 42bd 2035 d117 662a 66f4 23bc 7032 62b4
00000200: 1e41 cdb2 735f 4c33 92b1 3eaa 5e70 8b33
00000210: 19f0 2db2 ebd5 d42c 84a3 1aaf 34f6 4930
00000220: c4f3 182a 73b0 baaa bd29 45aa b326 e629
00000230: 4234 3b3e fbdd 88be 2ac4 aebd 9a01 a9be
00000240: ef7b ac2a 7726 8ebd 9fbb fbbc 85a4 b0bc
00000250: efde 363f cd8c 2f3e c056 ed3e 5b78 10a9
00000260: b281 493d e360 003c 0afe 843e 4d10 f9be
00000270: 9dfc 87bd 1723 20be 7c65 3d29 6ba2 5fbd
00000280: 58a9 483a da0e 1abe f202 803f c5f5 913e
00000290: c753 103f 600f 612b 19cd 94bd 49dc c63c
000002a0: 71f3 c63a f759 6b38 78c1 0e2c c46c 92aa
000002b0: 0a7c 3da9 bdb6 852b 90aa 3b2b 39ac 8b30
000002c0: e9cc b72c 36be 0733 dc54 392a 886e 29aa
000002d0: 8af7 26ab a3bd 02aa 5204 c9bc 900b 73b5
000002e0: b416 8d35 908f e633 d8ea 82aa d09f b432
000002f0: 43c3 ed33 5e9b 243b bb47 952f 9840 53a9
00000300: 24e9 3a2a a8ef 1529 7a02 7ca9 14a4 ae29
00000310: 3ac4 1b3e 4d46 073c 5a85 afbd ba02 3dbe
00000320: 417f b42a 5b1a 65bd 4477 84bd cbf5 883e
00000330: f815 37bf 4e4c 52bc 5c5c 7abd 39b4 ebaa
00000340: 03c5 563d 2a96 c23d 2565 8bbd c41e d1b9
00000350: 9087 8338 9f0e b0b9 3baa 9baa ca3d 5b3a
00000360: 233a 5539 2358 d4bd cf17 003f cc77 79be
00000370: 3078 ef3e cc8a d0a9 7141 df3d ff07 253e
00000380: 6651 0cbb 2ee6 d92a ccf9 aa29 8972 20ab
00000390: 7e98 1aab d583 a6aa 92ba cf2a 2f1d 3f3d
000003a0: f33a 0f39 621c 90b5 1644 2a2c 5eb5 8e29
000003b0: 38c4 0b2a 3d70 1cab ad9f b53d a187 a0bb
000003c0: d318 af3a 90b0 fcb2 b0c5 0f2b 0020 d3ab
000003d0: c4a9 4830 7d27 133e 0794 ddbe a4e1 933e
000003e0: 434d b63c f856 8129 692a 863e 9447 9d3e
000003f0: 74a8 2bb6 e4fe 9534 e890 9635 2064 5bb4
-0.0008331073 6.8847146e-07 1.0692938e-06 6.025937e-08 -7.7151377e-13 4.0846186e-07 -2.8102047e-08 -0.0032522741
-9.281834e-14 -1.6676572e-12 -1.6884592e-13 -7.417942e-16 3.1536094e-14 -2.2164796e-13 0.3052115 -0.88381225
0.5234944 -0.0350552 6.3562594e-13 0.5577925 0.5072696 -0.10947486 0.5809788 0.17649005
0.3393089 -4.441459e-13 -0.13743089 -0.043480773 -0.2997617 0.9993814 -0.5871228 -0.00023596435
-5.830071e-14 1.6780131e-08 -6.560668e-13 -0.0010266767 4.0289976e-12 -6.091607e-12 -3.277018e-13 -3.141572e-14
2.4717936e-12 -3.6479446e-13 0.09297875 -0.009784321 0.0010746237 -9.861063e-10 -7.5695906e-14 1.1559309e-09
3.9412995e-10 0.03823781 -3.2862994e-05 3.2105476e-08 -1.1794249e-09 6.2412843e-14 9.938574e-10 9.0528274e-10
-0.0005348787 -8.6743775e-08 -7.078458e-07 7.332847e-08 -6.224102e-14 7.271509e-08 -1.8972573e-08 0.008489406
-0.00018169658 -6.6848115e-05 2.1241346e-12 1.3682827e-13 4.8363635e-13 2.6513343e-13 0.312303 -0.8709378
0.49872062 -0.04015949 -1.6840155e-13 0.5050976 0.5064505 0.25303724 -0.110003285 -0.101847894
-0.44310927 -3.3775344e-14 -0.090664424 -0.07762593 0.18573257 -0.3511721 0.24235395 0.03109569
9.7036704e-15 0.16179958 0.22554407 -0.0010183934 -8.267011e-05 7.545158e-05 -2.3305782e-09 1.1071549e-13
-1.0538537e-09 -2.1443181e-12 0.010132072 7.5558964e-06 -1.8093656e-06 9.615352e-13 6.615823e-13 -4.4103626e-13
1.8756757e-13 -0.087214924 0.78143346 -0.3305649 0.74446297 2.8181111e-13 0.2631924 0.23840667
-9.473335e-08 6.0723046e-06 3.8103366e-07 2.5331362e-13 1.6400935e-13 -9.166639e-13 -5.531371e-13 -0.3097492
0.29358408 0.6266504 -3.1826023e-13 2.6808081e-14 5.988005e-07 2.0436367e-13 -0.010007 -2.1066239e-07
-2.3894753e-08 4.7584262e-08 -1.6936997e-13 6.4931314e-08 -1.0124517e-08 6.049152e-12 -1.4064311e-10 7.347325e-10
1.3584885e-13 -3.3162673e-13 -1.7511596e-13 1.0220765e-13 0.18281654 -0.26731858 -0.08533509 -0.33009034
3.0639334e-13 -0.0694093 -0.030729113 -0.021562824 0.7143392 0.17143555 0.46355247 -3.2078815e-14
0.049195953 0.0078356 0.25975066 -0.4864525 -0.06639979 -0.15638386 4.2054454e-14 -0.054598253
0.0007654629 -0.15044728 1.0000899 0.2850782 0.56377834 7.9957395e-13 -0.07265682 0.024274962
0.0015178752 5.6112152e-05 2.028681e-12 -2.601028e-13 -4.2074017e-14 9.500938e-13 6.667245e-13 1.016253e-09
5.2239224e-12 3.1605133e-08 1.6460742e-13 -1.5048564e-13 -5.9318577e-13 -1.1612113e-13 -0.024538193 -9.054138e-07
1.0511926e-06 1.07363235e-07 -2.3255594e-13 2.1027432e-08 1.10716904e-07 0.002511702 2.715391e-10 -4.6907438e-14
1.6601006e-13 3.3292515e-14 -5.595739e-14 7.755615e-14 0.15211573 0.008256507 -0.08570357 -0.18458071
3.2062723e-13 -0.055933338 -0.064680606 0.26750025 -0.71517897 -0.012835575 -0.061123237 -4.186944e-13
0.05243398 0.09501298 -0.06806401 -0.0003988651 6.271817e-05 -0.0003358023 -2.7651652e-13 0.00083633943
0.0002033492 -0.10368373 0.5003633 -0.24362105 0.46771383 -9.261133e-14 0.10901154 0.16116332
-0.0021410822 3.8706663e-13 7.5928494e-14 -5.700237e-13 -5.4923416e-13 -2.9579e-13 3.6900046e-13 0.04665869
0.00013659503 -1.0737097e-06 2.4196248e-12 6.337529e-14 1.2413757e-13 -5.5578095e-13 0.08868346 -0.0048989807
0.0013358839 -2.9416952e-08 5.107815e-13 -1.5001334e-12 7.300083e-10 0.14370532 -0.43276998 0.28883088
0.022253638 5.7438375e-14 0.2620423 0.30718672 -2.5579038e-06 2.793887e-07 1.1218044e-06 -2.043239e-07

layers.1.bias f4 [64]
00000000: df26 6ebd d6e2 3ebb 9c49 62b9 e4c9 213e
00000010: 484b 95bb 4e98 29bd bf27 11bd 8d0f 81bc
00000020: 3411 40bc 6d18 54bd bdf2 23bc 2003 e23c
00000030: 657f 71b4 23ed f5bb e65b 1bbc 3d01 42bc
00000040: 7983 403d 150e f5b7 c4f8 e2b8 6d3c cebc
00000050: a057 f3bb c2a7 eabb 03f7 c2bb f00c 30b8
00000060: 661d 47bb e7ee 84bd 47c9 ce3d 91a7 f5bc
00000070: f433 7db9 8ce3 f1bc dd4b 6b3e f2ee 263a
00000080: 9f2f e0bc 4228 2ebe 7c3d 12bb c75f 97bd
00000090: 63c1 4e3d b969 f3bc d1d8 84bc fd9b 6eba
000000a0: 482d afba e08f 5bb4 9a04 5aba eaa2 83b2
000000b0: 4980 4bbd 3d9a 493d 7a29 84bd 6089 b2bb
000000c0: 8d31 96bc b60f 81b4 53cd 623e d986 57bd
000000d0: 1e40 5cbd 56e8 80bd 8908 bbbc 895f 9bb7
000000e0: 6d51 41bd b1cc 9fb7 ceca e0bd 5f7e 42bd
000000f0: b7bb 88ba b04b 11bd 8a75 a6bd 9883 05be
-0.05814254 -0.0029126904 -0.00021580461 0.15799671 -0.0045560934 -0.041405015 -0.035438295 -0.015754486
-0.011722852 -0.051781107 -0.010006604 0.02758938 -2.249122e-07 -0.0075050755 -0.0094823595 -0.011841116
0.047000382 -2.9212833e-05 -0.00010822856 -0.025175298 -0.007426217 -0.0071611116 -0.0059498562 -4.197372e-05
-0.0030382513 -0.064908795 0.10096984 -0.029987128 -0.00024147314 -0.029527448 0.22978158 0.0006368003
-0.027366458 -0.17007545 -0.002231448 -0.07391315 0.050477397 -0.029713498 -0.016216667 -0.00091022236
-0.0013364935 -2.0448306e-07 -0.0008316726 -1.5324492e-08 -0.04968289 0.04921936 -0.064532235 -0.0054485053
-0.018334175 -2.4039554e-07 0.22148637 -0.052618835 -0.053772084 -0.062943146 -0.022831218 -1.8521927e-05
-0.047196794 -1.9049594e-05 -0.10976182 -0.047483798 -0.001043192 -0.03547257 -0.081278875 -0.1303848

layers.1.lin.weight f4 [64, 64]
00000000: 97df 8c37 778c 8e2b 6b64 023d ced0 ddbd
00000010: abf8 10bd cc9b 63ad c805 dfbb 4c6f 98bb
00000020: 10fa ef36 153f 39ba e8ca 7e3e d85b 8c3d
00000030: 4ba3 113e a8c8 4638 2e78 9eb9 b786 79be
00000040: 0514 51ab bc01 f5bd a3b3 9fb4 0436 93a8
00000050: 41b3 2c3e 18f3 92bd 3185 26bd 5154 73be
00000060: e8bd 57bb 125a ba2a fbd1 93b6 d828 9caa
00000070: a63b f33d dbf9 7b3d 55fb 17bb a081 07be
00000080: a04e 612a b209 6b3c 99ef eebc cd89 ed3d
00000090: b9dd a335 7e99 cbbd f5ce c12b c47f 6e2a
000000a0: 8da3 4fbe 850b 813e f105 04aa f5b6 33bd
000000b0: 5530 beba 7dc6 b12f d33b e2bc 7873 373e
000000c0: 7328 a127 c131 803d 040e b33d 169a 5ebe
000000d0: ece7 a2be 3039 053c 7221 e539 90bb 37bd
000000e0: 5e8f 17be 0136 4fbc 69f8 f92d d214 c7b7
000000f0: 346c f0a9 f23b 74be 84d9 733d e546 853e
00000100: fc8c 2229 c8e1 43aa eeb0 9f2f 3224 f2aa
00000110: f6c4 012b a86e e2a9 588a 4e2c 8bc5 6ba9
00000120: 38a9 8029 31ca e9ac 7538 e0ab 6094 20ac
00000130: dc1d 79ab cc27 06ab b5fd 93b0 a63e 4629
00000140: a287 062b 888d a82b 5d42 8c2a a234 212b
00000150: 2779 102b 2881 77ae cafd 4dac 171f d92b
00000160: 6c11 81ab 9dbb 86ab 01bd 08aa 43c4 f529
00000170: f844 86a9 ee92 9ba9 4a55 a129 4487 dfaa
00000180: 12bd ee2a 3caf 85ae a6ac d12d 2436 c1ab
00000190: da21 782a 5a2b b7ab 68cc b3ab 3844 3e2a
000001a0: b387 5baa 5d72 a12b ba7a 42aa d8e5 00ad
000001b0: e2ec 7629 da82 382a ee58 622f 99ff cd2b
000001c0: cb66 0b2b a8c9 afab d698 642c 1bd2 01ad
000001d0: a790 022b 65e7 d1af a22d 5b36 cf03 a4a9
000001e0: b78d 332b 7ab2 a62d ebc1 a829 5c14 0e29
000001f0: c251 102b 1ab2 8b2a ac14 2fab 33e4 da2c
00000200: b2e0 aca9 0116 6c2a c555 c0b6 a6b0 ad38
00000210: f8dc 1039 e02f d329 84e2 1f32 411f 2c32
00000220: c680 9529 bea4 8c2a 65d0 9eb7 b05c 9635
00000230: a7e6 03b7 14f8 e428 ac5b be2a b7f6 9038
00000240: dcbc 65aa 7276 7037 2089 60ac da4c 0ba9
00000250: 96a4 c137 ee8d 6db7 36f8 2a36 ed39 a1b7
00000260: ff35 5baa cc6a c42a 7b76 aaa9 8c06 8ba9
00000270: ba5a b7b7 e1af adb7 ac16 f42a 6327 c9b8
00000280: fae1 21ab 13e3 df29 8a90 88ad 14aa 3137
00000290: 8eea fca9 a318 a5b7 1d1d c829 2c71 082a
000002a0: 3c6c 18b8 1ae9 10b8 e45d aeaa 3c81 3fb6
000002b0: d7d1 9baa e2d3 8129 96c9 b138 4ba3 a0b7
000002c0: b26f a82a b2d7 67b8 e0a7 18b8 b42d 57b8
000002d0: 45f1 99b8 bb0d 88b7 285a 02b7 ca07 df38
000002e0: 275c 1cb8 0974 36b7 4868 a2a9 68c6 e029
000002f0: bafc 80a8 bec4 5fb8 ba89 8b36 d839 6fb6
00000300: 0e3b 1b38 de42 572c de6f 813d 03f4 243e
00000310: d24c 1b3f 2945 f02c 5893 ed3c f655 223c
00000320: f38c a538 5f99 1a3c 3bb3 bd3c b3bf fbbd
00000330: 42fa 523c 78b5 9bb6 13bc 36bb 5747 ea3e
00000340: e41c 422b 0b85 e03b 8bb5 f5b5 ffa1 e729
00000350: 709b 1bbe 827a 8c3e 996f 4fbd 6e79 453e
00000360: 67d5 153b 7ec5 27ab 4ff5 9936 5e91 42ab
00000370: 9c8c 88bd c604 acbc 027d 47bc aeca 993e
00000380: 0141 9829 71e5 183d 3597 b93d 33a0 033d
00000390: 1711 5ab6 9d19 4d3f a170 122c 482c 8b29
000003a0: 9a69 803e 38c4 00be dca0 9aaa 7cfe d73d
000003b0: 8227 123b 3e80 78b0 ad1e 903e 50ca d3bd
000003c0: f960 aeaa e0cc 3b3d 98e1 67be 45c5 b93e
000003d0: 7d14 d93e 5ba8 c93d e4f6 7c3e e8c3 e53e
000003e0: c5bd a53e 198c 863e adac 8c30 5232 e6b7
000003f0: ff69 08ab 70b3 ac3e 3048 5dbc 28b6 da3d
1.6793418e-05 1.0128694e-12 0.031834047 -0.10830842 -0.0353934 -1.293805e-11 -0.006806109 -0.0046519395
7.151866e-06 -0.000706659 0.2488209 0.06853455 0.14222448 4.7393754e-05 -0.0003022565 -0.24367796
-7.42795e-13 -0.119632214 -2.974676e-07 -1.6343704e-14 0.16865255 -0.07175273 -0.040654365 -0.23762633
-0.003291959 3.3102736e-13 -4.4053863e-06 -2.7739508e-13 0.118766114 0.061517578 -0.0023190577 -0.13233042
2.0011293e-13 0.014345573 -0.029166983 0.11598549 1.2208976e-06 -0.09941386 1.3770917e-12 2.1182974e-13
-0.20277233 0.252041 -1.1726016e-13 -0.043875653 -0.0014510254 3.2337147e-10 -0.027616417 0.17915142
4.473033e-15 0.0625949 0.08742908 -0.21738467 -0.31817567 0.00813131 0.00043703202 -0.044856608
-0.14800784 -0.012647153 2.8418339e-11 -2.3732344e-05 -1.0676911e-13 -0.23850992 0.05953361 0.2603065
3.609351e-14 -1.7397813e-13 2.9047648e-10 -4.301295e-13 4.6103345e-13 -1.0055612e-13 2.9351157e-12 -5.2351823e-14
5.7136967e-14 -6.644706e-12 -1.5931827e-12 -2.2819732e-12 -8.850401e-13 -4.766159e-13 -1.0767766e-09 4.401917e-14
4.779459e-13 1.1976401e-12 2.4915045e-13 5.7271733e-13 5.132721e-13 -5.627601e-11 -2.9273133e-12 1.5427407e-12
-9.170837e-13 -9.573346e-13 -1.21448e-13 1.09142316e-13 -5.9627596e-14 -6.908871e-14 7.1646316e-14 -3.9706617e-13
4.2408487e-13 -6.0792676e-11 2.383722e-11 -1.3728502e-12 2.203857e-13 -1.3014965e-12 -1.2775449e-12 1.6899058e-13
-1.9498188e-13 1.147148e-12 -1.727324e-13 -7.326993e-12 5.4828436e-14 1.6387881e-13 2.0586174e-10 1.4637069e-12
4.9525374e-13 -1.2490469e-12 3.248559e-12 -7.379454e-12 4.6386023e-13 -3.8181294e-10 3.2660105e-06 -7.283724e-14
6.3790244e-13 1.8951275e-11 7.494338e-14 3.1547993e-14 5.127254e-13 2.4814943e-13 -6.220118e-13 6.221268e-12
-7.677313e-14 2.0968645e-13 -5.732031e-06 8.282186e-05 0.00013815227 9.378587e-14 9.306522e-09 1.0018824e-08
6.639268e-14 2.4983309e-13 -1.8932109e-05 1.1202847e-06 -7.861911e-06 2.5420672e-14 3.381439e-13 6.912409e-05
-2.040481e-13 1.4332692e-05 -3.1908434e-12 -3.0930858e-14 2.3084034e-05 -1.4159346e-05 2.5476452e-06 -1.921967e-05
-1.9469841e-13 3.48907e-13 -7.5700697e-14 -6.173976e-14 -2.1857548e-05 -2.0705107e-05 4.335884e-13 -9.591763e-05
-5.7512296e-13 9.9425805e-14 -1.5525598e-11 1.05896215e-05 -1.1231737e-13 -1.9681005e-05 8.8868345e-14 1.2118491e-13
-3.6340425e-05 -3.4549368e-05 -3.097376e-13 -2.8536442e-06 -2.7679137e-13 5.7655066e-14 8.477566e-05 -1.9149526e-05
2.99203e-13 -5.5275574e-05 -3.639597e-05 -5.130256e-05 -7.3405485e-05 -1.6218857e-05 -7.769595e-06 0.000106349195
-3.7279122e-05 -1.0875062e-05 -7.212335e-14 9.982016e-14 -1.4320457e-14 -5.3350574e-05 4.1585563e-06 -3.5647445e-06
3.700988e-05 3.0590456e-12 0.06320165 0.16108708 0.60664093 6.8288886e-12 0.029000923 0.00990819
7.894067e-05 0.009435981 0.023156753 -0.12292423 0.012877049 -4.6404857e-06 -0.0027883097 0.45757553
6.896274e-13 0.0068517975 -1.8306758e-06 1.02865626e-13 -0.15196013 0.27437216 -0.050643537 0.19284603
0.0022862793 -5.9604394e-13 4.588313e-06 -6.9124383e-13 -0.06667444 -0.02099837 -0.0121758 0.30037445
6.7614324e-14 0.037328187 0.090620436 0.0321352 -3.249448e-06 0.8011721 2.081037e-12 6.1805216e-14
0.25080568 -0.12574852 -2.7467514e-13 0.10546586 0.002230138 -9.040412e-10 0.28148404 -0.103413224
-3.0975897e-13 0.04584968 -0.22644651 0.36283317 0.42398444 0.098465644 0.24703556 0.44876027
0.32371345 0.2627876 1.0235418e-09 -2.7441569e-05 -4.8464005e-13 0.3373065 -0.01350598 0.10679275

layers.2.bias f4 [64]
00000000: 4018 b0bd d5f3 5cb7 e251 99bc 75b6 acbc
00000010: 22a2 973e 1ae8 2abc ace0 77bc 520d e3bc
00000020: 2c23 89ba 577f eab9 0ec2 fc3d e8c1 bfbb
00000030: 2687 da3b 5edc 71bc 1ad1 a2bc 8193 88bb
00000040: 8395 6a3c 8c1d 00b7 e8fb 12bc 52d4 59bd
00000050: 158f d4bc d8ca 60ba c751 e8bc 813c 06b8
00000060: 3a42 d0bb 138a 8d3e 0c7f 763e 3d79 48b3
00000070: 481a 10bd 6f47 0bbd aeb2 a5bc 379a 92b8
00000080: 0d63 87bc 71ed b4bc f55d d8bc 3910 9a3e
00000090: b05b 29bd f925 89bd cc49 f6bb fdec 1f3e
000000a0: a86d 90bc f40a 84bc 8e1e d3bc a7a3 b5bb
000000b0: 6bc5 37bd 332b c3bb d1af a93e cf1e 03bd
000000c0: dc7b 0cbd d37c 8e3e e443 52ba 52ba 14bd
000000d0: 04d9 593e 8979 95b8 9db8 25bd c8a5 92b7
000000e0: 9617 bbbb 1925 d0bc 44ba 9c3e 897d 0cbc
000000f0: 6820 26b8 0060 fbbc f37c 91bc 749c 27bc
-0.08598375 -1.3169793e-05 -0.018715803 -0.021083096 0.29615885 -0.010431314 -0.01512925 -0.027716313
-0.0010462753 -0.00044726834 0.123417005 -0.005851973 0.006668943 -0.014762012 -0.019875098 -0.0041679745
0.014317873 -7.636274e-06 -0.008971192 -0.053181 -0.025947133 -0.0008575148 -0.028359307 -3.200444e-05
-0.006355551 0.27644405 0.24071902 -4.6676394e-08 -0.035181314 -0.03400367 -0.020226803 -6.990547e-05
-0.016526723 -0.022085877 -0.02641199 0.30090502 -0.041347206 -0.06696696 -0.0075161215 0.15617748
-0.017630413 -0.016118504 -0.025771406 -0.0055431905 -0.044866007 -0.0059560775 0.3314195 -0.032011803
-0.03429781 0.27829608 -0.0008020981 -0.0363105 0.21274191 -7.127511e-05 -0.040459264 -1.7481754e-05
-0.005709599 -0.025408315 0.3061086 -0.008574852 -3.9607665e-05 -0.030685425 -0.017759776 -0.010230172

layers.2.lin.weight f4 [64, 64]
00000000: c15c 9c3a 644b 4ca9 54af bb28 8979 31bd
00000010: f292 f3b6 44c7 07bb 2c67 b3bb 52f1 dbaa
00000020: dc8e 22ab e9a2 aaba c7e2 85ab e4c9 07bb
00000030: 029d 6ba9 30f4 a9a8 81af cd29 6065 3527
00000040: 6f98 5eba 2bf4 a52a 04f0 92a9 5e1b 0c2a
00000050: 04ec 15aa 6e98 922a db70 4029 f2ef bcaa
00000060: 513f 33aa d8eb c437 1b7f a8bc 1f0d c6a9
00000070: 02ce f829 9a4b 523a 7e59 17bd 0d2f 0cbb
00000080: d606 8037 635f 0e29 6a02 abaa f1b5 a3b9
00000090: d8c1 b4bc 1422 8e3a bfc6 c12a a2a6 052a
000000a0: 9726 ba29 8c20 daaa 7aae 91aa 738c 092b
000000b0: c7fb a13a 6ed1 3dbc 5776 a639 b0be b8bc
000000c0: dc42 eda9 5756 12ab 77f8 5fbc 7cf0 823a
000000d0: 8051 6cb9 9475 4ca7 a295 5baa 6d63 dc2a
000000e0: b71e dc39 4257 892c 1f80 a9b7 fa82 0e2a
000000f0: 5c63 c9a9 fc64 0a38 9cad 8528 ba6d 07af
00000100: c187 cc2a ba99 18a9 e03f ac2a 1aa4 1429
00000110: 2d24 3b2a 0c54 8d2b dea2 782b 2982 05ab
00000120: 9088 e2a8 acba dd2a 77af b12a ec40 88a9
00000130: c427 602a 9e33 9a2a bb67 11ab fda9 f62a
00000140: f6bd dcaa fe4d a42a 30d6 c2a7 785f ea2a
00000150: 637d b1aa 9153 d429 1a06 b8a9 35a0 7fa9
00000160: 9652 58a9 b14d 0b2a 5876 62a9 4eac 85aa
00000170: 401c 57a8 9fab c3a9 c8fb 2ca9 b00c b2a7
00000180: 9c79 ea29 d6bd 0b2a 985d 03ab cb85 85ab
00000190: 5c87 1f29 7235 34aa a4fa 2caa 9bf4 99aa
000001a0: 8483 322a cc3e 342a a08e f82a 7496 f6aa
000001b0: 8416 f32a f47d 33a9 273b c9aa 3882 21aa
000001c0: 676e 242b e5c6 6b2a 8812 e528 5ec2 742b
000001d0: 7036 4a2b 69e3 252a 725c dba9 ef85 9629
000001e0: e2db 3b2b 5186 9ba9 893f 9029 5b4c bb2a
000001f0: 0936 2eaa 22a3 2b2a d0d6 12aa 7bd2 44aa
00000200: 77f3 a12c 461d a12a 78f6 a8aa a436 252a
00000210: 8841 0da9 9906 0839 4083 94b3 20a3 c2a7
00000220: 5530 9a29 00da 3839 3abb 1eaa fbc9 ed2a
00000230: a3c3 2c2a efdd 5d36 6c74 9ea9 35c6 e1aa
00000240: 0af8 9328 c625 b6a9 0441 7aaa 55c2 d6ae
00000250: feaa 232c d1ad dcab 54f3 17ab ae0d 192b
00000260: a14a fc2a a88a 742b 8ca8 0fac 4e1d 9cb0
00000270: e2fc f3aa bb49 b3ac f7a8 54aa 504e f02a
00000280: 4e47 0129 2f88 74aa 2019 1aab 3e4c d532
00000290: f481 e1a9 fcd9 d8af e61b 4baa bc0f 9929
000002a0: 5857 cfaa 1ff1 b92a 58c5 1a2a e97b 9ba9
000002b0: a224 cab5 f022 62aa c0e2 e736 5b0d 822d
000002c0: eaaa d6aa 494b 162b 0542 f12a 0d79 fab8
000002d0: fef7 cdac 4f18 6eaa 4a08 cd2a 3e2c 89aa
000002e0: 2fca 002b b39a 46aa d5b5 112b 1689 662a
000002f0: 338c d02b 2745 af30 b551 5b29 20f7 94a8
00000300: 3070 1db3 b439 282a 1044 7aa9 2f87 82a9
00000310: efb5 b2a8 419b b5ba 7355 97b6 e18d 4329
00000320: e041 9aaa 78a8 01bb 5472 212a fa55 cd29
00000330: bce0 00ab 23a8 0f3a baea aa2a 7350 31ac
00000340: 0068 1529 a7f0 15a9 366a 242b 6bab 9a35
00000350: d7c2 c32f 9470 8f2e aade 59ab b251 73aa
00000360: 1884 d52a 82e4 19ab 4152 3faa b829 2837
00000370: 4c34 1429 4c1b dc2b b5a8 31aa e168 4aaa
00000380: 6084 25a8 0584 f6aa d39d e4aa db69 78b8
00000390: a9cf 1baa e297 132f 62e4 112b 8eab e8a9
000003a0: 9811 9aa9 4ee9 662a f0d7 f42a 1f72 d32a
000003b0: 92f2 99b7 1201 fe28 96ff e4b8 a06a fc2c
000003c0: 06c5 a6a7 826f 4e2a f0ae 1c2b bf08 e4ba
000003d0: f6ab 6c2c a98a 6629 e551 27aa b45b 0baa
000003e0: a02d 81ac 1c9b a02a 647f 62a9 2d3e c0aa
000003f0: 9fc7 daad e8a1 bf34 f0d9 a427 d8ca 7529
0.0011929498 -4.536249e-14 2.0837207e-14 -0.043328796 -7.259071e-06 -0.0020718137 -0.0054749455 -3.9069664e-13
-5.775222e-13 -0.0013018522 -9.513162e-13 -0.0020719701 -5.2316665e-14 -1.8868669e-14 9.134274e-14 2.5173751e-15
-0.00084913423 2.9479313e-13 -6.5253385e-14 1.2443993e-13 -1.3315743e-13 2.604058e-13 4.273045e-14 -3.3562004e-13
-1.5920361e-13 2.3474844e-05 -0.020568421 -8.7952425e-14 1.1049149e-13 0.000802213 -0.03695058 -0.002139035
1.5261972e-05 3.161307e-14 -3.0377377e-13 -0.0003122534 -0.022065088 0.0010843896 3.4421595e-13 1.1870585e-13
8.2667536e-14 -3.8747163e-13 -2.5878242e-13 4.886709e-13 0.0012358361 -0.011585576 0.00031750157 -0.022551864
-1.05365125e-13 -5.198944e-13 -0.0136700785 0.0009989883 -0.00022537075 -2.8374426e-15 -1.9503022e-13 3.914884e-13
0.00041984554 3.9034618e-12 -2.0206031e-05 1.2657575e-13 -8.943429e-14 3.2995813e-05 1.4841257e-14 -1.2317161e-10
3.6331878e-13 -3.3884116e-14 3.059766e-13 3.3004937e-14 1.6621487e-13 1.004198e-12 8.8333323e-13 -4.7431725e-13
-2.5150265e-14 3.9387016e-13 3.156327e-13 -6.0508754e-14 1.9908993e-13 2.7391712e-13 -5.1658303e-13 4.381633e-13
-3.9211662e-13 2.918637e-13 -5.407804e-15 4.1632995e-13 -3.152852e-13 9.429188e-14 -8.1723e-14 -5.6760332e-14
-4.8033267e-14 1.2372635e-13 -5.0284728e-14 -2.3745106e-13 -1.1941023e-14 -8.689511e-14 -3.8410057e-14 -4.941868e-15
1.04127834e-13 1.2411543e-13 -4.6670437e-13 -9.487353e-13 3.5422498e-14 -1.6005754e-13 -1.5363627e-13 -2.734799e-13
1.5855205e-13 1.6008999e-13 4.4152616e-13 -4.3802776e-13 4.3181095e-13 -3.985523e-14 -3.5745818e-13 -1.4344851e-13
5.841772e-13 2.0941198e-13 2.5432144e-14 8.695595e-13 7.1840364e-13 1.4733843e-13 -9.7415904e-14 6.684572e-14
6.6740894e-13 -6.906683e-14 6.405906e-14 3.3270855e-13 -1.5473052e-13 1.5244449e-13 -1.3041933e-13 -1.7481322e-13
4.6029252e-12 2.8619658e-13 -3.0013817e-13 1.4673901e-13 -3.136513e-14 0.00012972429 -6.915661e-08 -5.4022677e-15
6.847358e-14 0.00017628819 -1.4098176e-13 4.223981e-13 1.5344544e-13 3.3060749e-06 -7.0368055e-14 -4.0105563e-13
1.6427848e-14 -8.088976e-14 -2.2227017e-13 -9.7661136e-11 2.3258613e-12 -1.5680184e-12 -5.398366e-13 5.4375504e-13
4.4815977e-13 8.687864e-13 -2.0415085e-12 -1.1358823e-09 -4.3340944e-13 -5.0956717e-12 -1.8888004e-13 4.2686904e-13
2.87056e-14 -2.1718802e-13 -5.474666e-13 2.4831134e-08 -1.00145505e-13 -3.9445058e-10 -1.8039701e-13 6.7972944e-14
-3.6831193e-13 3.3029913e-13 1.3746415e-13 -6.904878e-14 -1.5060834e-06 -2.0084954e-13 6.9107336e-06 1.478522e-11
-3.8132632e-13 5.3395184e-13 4.285601e-13 -0.000119434764 -5.853983e-12 -2.114708e-13 3.6421067e-13 -2.4366788e-13
4.575532e-13 -1.7639605e-13 5.176669e-13 2.0475665e-13 1.4818202e-12 1.275258e-09 4.8698638e-14 -1.6538474e-14
-3.6656445e-08 1.4941417e-13 -5.5570186e-14 -5.7966103e-14 -1.9840871e-14 -0.0013855473 -4.5100983e-06 4.3421758e-14
-2.7401605e-13 -0.0019784253 1.4339338e-13 9.1187434e-14 -4.5786617e-13 0.00054800714 3.036094e-13 -2.5197871e-12
3.3174852e-14 -3.329338e-14 5.84119e-13 1.1523783e-06 3.5608735e-10 6.522885e-11 -7.7402895e-13 -2.161108e-13
3.792806e-13 -5.467364e-13 -1.6992745e-13 1.0023294e-05 3.2907962e-14 1.5639517e-12 -1.577929e-13 -1.7977591e-13
-9.188044e-15 -4.3789985e-13 -4.0610448e-13 -5.9226393e-05 -1.3838812e-13 1.3423532e-10 5.1831293e-13 -1.033263e-13
-6.842026e-14 2.0509047e-13 4.3492944e-13 3.7560317e-13 -1.8351977e-05 2.8200129e-14 -0.00010919494 7.1741085e-12
-4.628787e-15 1.8335162e-13 5.566511e-13 -0.0017397626 3.3633075e-12 5.1190528e-14 -1.4860992e-13 -1.2377496e-13
-3.671466e-12 2.8529338e-13 -5.0292574e-14 -3.4149194e-13 -2.487238e-11 3.5694325e-07 4.5755432e-15 5.4576867e-14

layers.3.bias f4 [2]
00000000: eb78 323e ea78 32be
0.17428939 -0.17428938

layers.3.lin.weight f4 [2, 64]
00000000: 5a93 0dbe 4bd6 05bc 2ccf 01bb 0ede afad
00000010: d3dd e53e 032e 13bd f5dc 03bd 29ec 98be
00000020: 9cb8 e32d bab6 d4ab fa9f 783e 222f ce30
00000030: 1fd6 d7be 808d e438 5263 86bd 0d1b 4bbe
00000040: 0374 b5be 87f2 9b2a 8518 a03a fa7e c6bc
00000050: 34e1 a5be 7ec1 c6b6 0d64 253b 1320 412a
00000060: 3acc b239 4130 043f eafc 973e c99b 80ad
00000070: 103c 8731 4321 aabe b1a2 00b2 53d6 d5b9
00000080: cc7c 9cbe 305f 91be da8d 1ebe 3938 df3e
00000090: 7103 94be f39c 2bbf bf6d e1be 6bcc cf3e
000000a0: 451f 8ba9 477c e53a 4c39 a2b8 26d4 afae
000000b0: 58ce 3ebe 0232 663c 0e9f d53e c331 8ebd
000000c0: 693f bcbc 50c7 be3e 3ebf a0be 3426 e93b
000000d0: 15e3 e83e 24aa 493a 6bd0 c63c f83e 9837
000000e0: 5491 46ab a2d4 20be 2cab 023f a4e3 3e3b
000000f0: 8138 6ab7 b866 8dbe 3fad 6dbe 454d 962a
00000100: 7581 0d3e a989 0fbb ba5d 64bb b622 672b
00000110: 5bc2 03bf a2c7 eabc 7ed7 033d 889b 3d3e
00000120: bb0c ed2d 34c9 e7aa 177d 6fbe 85cf 9db1
00000130: 26fd 383e 3aa1 a638 ab26 c23e de14 103e
00000140: 14f1 2c3e 031a be2a db77 1b3b e5d8 153e
00000150: e804 c2bc e8df c036 1236 9cba 0904 07ab
00000160: 2cb9 f6b9 6923 8abe 4389 9abe c496 132d
00000170: d95a a4b0 0749 573e a36b 0830 0115 cc39
00000180: 3f7f 023e 2d49 603e 19d6 423e 9a4e 0abf
00000190: 3803 b43e 9760 e53e 35cd 553e d2d5 b8be
000001a0: 14ee 9e2b 544c de39 584e b738 d94a 902d
000001b0: 2edc 0a3e 8d98 68bc bfd0 d4be 7826 913e
000001c0: 4ad2 333e 98c0 c5be 26f4 cc3e 4f43 f63a
000001d0: f774 d9be a26c 36ba b24f e5bc cbdb 18b7
000001e0: 6831 28aa 2eee 673e e762 d6be c088 3ebb
000001f0: 4763 7037 04ec aa3c a8d3 513e b38e 3dac
-0.13825741 -0.008168767 -0.0019807322 -1.9993809e-11 0.448958 -0.035932552 -0.032193143 -0.29867676
2.5888895e-11 -1.5114223e-12 0.24279776 1.5001869e-09 -0.4215555 0.000108982436 -0.065619126 -0.19834538
-0.35440072 2.7701818e-13 0.0012214339 -0.024230469 -0.3239838 -5.9233853e-06 0.0025236637 1.7152971e-13
0.00034102966 0.5163613 0.29685146 -1.4621098e-11 3.9358454e-09 -0.33228502 -7.487572e-09 -0.0004078621
-0.30563962 -0.28392935 -0.154838 0.43597582 -0.28908876 -0.6703636 -0.44029042 0.40585646
-6.1782644e-14 0.0017508351 -7.735434e-05 -7.995764e-11 -0.18633401 0.014050009 0.41722912 -0.06943085
-0.022979455 0.37261438 -0.31395906 0.00711515 0.4548575 0.00076928944 0.024269303 1.8149134e-05
-7.0545414e-13 -0.15706113 0.5104244 0.0029127384 -1.3960643e-05 -0.2761743 -0.2321062 2.669897e-13
0.13818915 -0.002190212 -0.0034845904 8.2115857e-13 -0.5146844 -0.028659645 0.03218793 0.18516362
2.6949434e-11 -4.1173456e-13 -0.23387562 -4.5928936e-09 0.18065318 7.9455276e-05 0.37920126 0.1407046
0.16888839 3.376883e-13 0.0023722562 0.1463352 -0.02368398 5.748112e-06 -0.001191797 -4.7967235e-13
-0.0004705874 -0.2698014 -0.30182847 8.389459e-12 -1.1958391e-09 0.21023951 4.962947e-10 0.0003892556
0.12743853 0.21902914 0.19026984 -0.54026186 0.35158706 0.44800255 0.20879062 -0.36100632
1.1292655e-12 0.00042400009 8.740713e-05 1.6404144e-11 0.13560554 -0.014196527 -0.4156551 0.28349662
0.17560688 -0.386235 0.4003002 0.001878837 -0.4247205 -0.00069589366 -0.027992103 -9.1110805e-06
-1.4938539e-13 0.22649452 -0.41872332 -0.0029073209 1.432823e-05 0.020864494 0.20490897 -2.693773e-12
