visualization/models/SAGE_model.pth (torch, 75682 bytes, 12 tensors)

layers.0.lin_l.weight f4 [64, 7]
00000000: e112 0c3e a2c8 d83c 2bcf b3be bc05 4f2a
00000010: 89d1 29aa 5d73 0dac 3099 4f2c 3921 96ba
00000020: ed71 2d2d 772d e4ab 7c9c e129 2fe2 ce28
00000030: 7b08 c0aa dcac 31aa 7ea5 dd3e eaf4 193e
00000040: 3372 06bf ac11 0faa 3855 3028 16db 7caa
00000050: 6ada 682a f5ac a5be 2e9c 5c3f 8338 81be
00000060: 59e4 f23e e403 23aa a8a4 7ebe 43ee 2abe
00000070: 910e b2be 7f81 303f 0c63 bbbe 1e29 133f
00000080: 2cdc 8529 0127 9cbe 205f 6fbe 5f6c a73e
00000090: 9699 febe 18a7 cbbe 2d89 53aa 48eb 99a8
000000a0: f40b 91ab 3e01 1e2b fecc 84bd c329 bb3d
000000b0: 096a a03d 8347 ec3d f368 5eab 4f52 bc33
000000c0: 3e1a e6b2 97f6 9cbe 1cc6 233f 9b86 99bd
000000d0: ad21 193e f136 b629 b825 4abe 319f 15be
000000e0: f4f0 6b3e 81ac 26bf 19ac 6a3d 5771 22be
000000f0: 4a11 bcaa f19c b13e 034b c83e b426 c1bc
00000100: 1f2d b4b3 80c2 ac31 d265 9b2d 3211 602b
00000110: 9cce 442c 3e2a e92b ba3c 51be 156b 47be
00000120: 467b 16be 761c 5b3e 9269 9eab 2107 d73c
00000130: c389 a93d 4c51 57be d13d bc3e 1edf 96be
00000140: eb5f 2e3e 4fed 9d2b 988c 4abe b878 59be
00000150: 1d8d 92bc 2003 b22c 17bd bdab 4946 a9aa
00000160: 2a96 7429 f245 8fab 8be4 91aa 8f81 38be
00000170: f409 1abd 5269 0dbe 9474 06bb a23d a2aa
00000180: 7661 233c d861 7238 eaf1 fdbc 0eb1 663c
00000190: 17ac a0be df21 923e 0a01 092b b216 94bc
000001a0: cb83 0f3c 4dbe 35bd cc8b b8be 50dd 8ebe
000001b0: 104d 273e 306a c4aa 7a26 06bd 7db2 4d3c
000001c0: 0f2c 2b3d cc20 3cbf 3948 3b3e cae8 98be
000001d0: 2b50 5aa9 808d d33e 3680 ed3e f08a 56b7
000001e0: 72af 4ab5 36c4 9b35 661e 8634 8f3a e1aa
000001f0: d0ca 3834 832f 2a33 70f1 b43e 4b54 bd3d
00000200: d4b9 a7be dbc1 e129 2717 b9ab 4622 33aa
00000210: 0b84 b9ab 264e 83be 4dc8 763e 3755 22bb
00000220: e0cf bc2a b8b0 912b fe6e 0d2b 1977 a5ab
00000230: 8a6c e23d dc34 87bd 8ab8 07bd 0798 a0ad
00000240: be4a 6dab 882c e22d 944e 3b2e df88 b3bd
00000250: e0e2 15be eaeb d03d 62d2 dcbd c4f4 9aa9
00000260: fb93 9d3d c25b cf3d 9938 82be 0875 7c3f
00000270: 73da 94be 2346 723e 8473 2229 90e4 75be
00000280: 8c72 4cbe 5c19 5bbe 5d66 28be 465e a7bd
00000290: 44c1 9b3c b8c2 0caa bc1a 5dba 910b 093a
000002a0: 65d2 b43d fe7a b0be 213a 11bd 3018 c03b
000002b0: f582 48ab fe67 623e ad86 383e 1994 24be
000002c0: 006f b13e 0222 ecbd 3932 1b3e 3325 202b
000002d0: d936 35be 81b4 2dbe 80f1 e8be 1369 443f
000002e0: bb89 6b3f fbc3 8caf 1d71 172b e28d c32c
000002f0: ea07 122b 881a 8f3e b4df 59bf 2b2a 2e3d
00000300: 1f28 61be 14e2 bcaa 7f15 c53e b77d e43e
00000310: b625 8cbe 3976 353f 62e7 91bb 2535 703e
00000320: db39 ee29 c7b8 4fbe ad0c 43bd f29f bbbe
00000330: b841 243f 0c7a 76be 4852 4d3e 74f0 0e2b
00000340: a3be 9abe d71d 95be 67e9 febc 75b6 a83e
00000350: 998a 8cbe 15eb d4bd 24f5 b4aa 8ceb debd
00000360: aeb0 b5bb 7296 b13e ba6f 81be 9bb1 f9bd
00000370: 6e0d 263c 5a24 e72a fddc ceb9 52a5 8db3
00000380: 9170 fd3c 53b2 0a3d b9b1 5abb 6be4 06ad
00000390: 128c 3f29 5d5d 2cad deed 722a 58ef e73e
000003a0: 3566 b83e 2625 f6be ce70 1a2b e84f ac2a
000003b0: de8b 29aa 8b87 292b 48e2 7bbe 2557 f43e
000003c0: b84d e3be 006a 453f 3de0 a1a8 7e9e bebe
000003d0: 0f96 c9be 3b48 78be 17b4 403f cab8 69be
000003e0: 1e6a 933e 822e 8ba9 7f0d 8abe be22 a8be
000003f0: 52dc aa3e 5199 13bf 763d a23e 1ede a4bc
0.13679077 0.026462857 -0.35118994 1.8387283e-13 -1.5082912e-13 -2.0101345e-12 2.9501505e-12 -0.0011453993
9.859208e-12 -1.6212993e-12 1.0019153e-13 2.2968686e-14 -3.4111936e-13 -1.578073e-13 0.43290323 0.15034834
-0.52518004 -1.2707083e-13 9.7884415e-15 -2.2458107e-13 2.0681517e-13 -0.32358518 0.8617581 -0.25238428
0.4743984 -1.4478658e-13 -0.24867499 -0.16692452 -0.34776738 0.68947595 -0.36599004 0.57484615
5.94458e-14 -0.30498508 -0.23376131 0.32699868 -0.49726552 -0.3977592 -1.8788157e-13 -1.708845e-14
-1.0306187e-12 5.61346e-13 -0.06484412 0.09138825 0.078327246 0.11537077 -7.901589e-13 8.769404e-08
-2.6787458e-08 -0.30656883 0.63974166 -0.07496377 0.14954253 8.0919544e-14 -0.19740951 -0.14611508
0.23041135 -0.6510697 0.05729303 -0.15863548 -3.3407505e-13 0.3469005 0.3911973 -0.023578025
-8.390111e-08 5.027971e-09 1.7666677e-11 7.960465e-13 2.7967966e-12 1.656737e-12 -0.20433322 -0.19474442
-0.14695463 0.21397576 -1.1255877e-12 0.026248517 0.08278229 -0.21027106 0.36765912 -0.294671
0.17028777 1.1221387e-12 -0.19780195 -0.21237457 -0.017889554 5.0594112e-12 -1.3481741e-12 -3.00692e-13
5.430913e-14 -1.0180175e-12 -2.5915758e-13 -0.18018173 -0.03760715 -0.13809708 -0.0020516263 -2.8819747e-13
0.009971967 5.778842e-05 -0.030999143 0.014080299 -0.31381294 0.28541467 4.867362e-13 -0.018077228
0.008759449 -0.044370938 -0.36044157 -0.27903223 0.16337991 -3.4890276e-13 -0.032751538 0.012554762
0.041790064 -0.73487544 0.1828927 -0.29865104 -4.847526e-14 0.41318893 0.4638688 -1.2787743e-05
-7.550617e-07 1.1605505e-06 2.4981563e-07 -4.0008662e-13 1.7210118e-07 3.962442e-08 0.35340452 0.09244593
-0.32758963 1.0025636e-13 -1.3151467e-12 -1.5910285e-13 -1.318169e-12 -0.2564556 0.24099846 -0.002477003
3.353975e-13 1.0351919e-12 5.0247295e-13 -1.1757011e-12 0.110558584 -0.06601879 -0.033134975 -1.8257408e-11
-8.430304e-13 2.5713001e-11 4.258867e-11 -0.087663405 -0.14637327 0.10201247 -0.10782315 -6.881434e-14
0.07694241 0.10124923 -0.25433806 0.98616076 -0.29072914 0.23659568 3.607142e-14 -0.24012971
-0.19965571 -0.21396393 -0.16445298 -0.08172278 0.019013055 -1.2502055e-13 -0.00084344647 0.0005227859
0.08829192 -0.34468836 -0.035455827 0.0058622584 -7.1236013e-13 0.22109982 0.18020125 -0.1607212
0.34655 -0.11529924 0.15155877 5.6895043e-13 -0.17696704 -0.16963388 -0.4549675 0.7672283
0.92007035 -2.5605104e-10 5.3802953e-13 5.5579855e-12 5.18806e-13 0.2794993 -0.8510697 0.042520683
-0.21987961 -3.3552382e-13 0.38492963 0.44627163 -0.2737252 0.7088352 -0.004452632 0.23457773
1.05793595e-13 -0.2028533 -0.04761951 -0.36645466 0.6416278 -0.24069995 0.20050919 5.078223e-13
-0.3022357 -0.29124328 -0.031117154 0.32951704 -0.27449492 -0.10396401 -3.2144524e-13 -0.10884771
-0.0055447435 0.34685093 -0.25280553 -0.12192079 0.010135038 4.1059067e-13 -0.0003945603 -6.595896e-08
0.030937465 0.03386147 -0.003337009 -7.667737e-12 4.253201e-14 -9.797799e-12 2.1576445e-13 0.45299792
0.36015478 -0.48075217 5.486834e-13 3.0608784e-13 -1.5058741e-13 6.0228965e-13 -0.24598038 0.47722736
-0.44395232 0.7711487 -1.7971839e-14 -0.37230295 -0.39372298 -0.24246304 0.75274795 -0.22824398
0.28791898 -6.180908e-14 -0.26963422 -0.32839006 0.33371216 -0.5765582 0.31687516 -0.020125445

layers.0.lin_l.bias f4 [64]
00000000: da6a 923c 11d0 19bb 5018 80bb ae26 013e
00000010: c0cd 9dba 8ee7 0f3e dd6a 05bd 2fa1 163d
00000020: 58ac 18bd b3f9 dbbc f926 0f3d 7b71 263e
00000030: 4c83 d1bc 369d 40be ff23 9f3d 4a48 403e
00000040: 74c9 17bd 083d 0235 b40f adbc e017 8abd
00000050: d4d3 12bb 5517 e93c 862e 16be e2ed 58be
00000060: 896d b9bc 1b18 0a3e ce6f aebe 81e9 41be
00000070: 42d1 903e 18c6 983e 8adc 38bd e73c e4bd
00000080: d195 fe3b a3a9 77be 1f5f 613e 2975 5e3d
00000090: 5cb1 30be 55d8 c8bc 2ad8 45be 5a35 12be
000000a0: 4c9d 09bd 3f75 51bd 372f 44be f5b0 8bba
000000b0: 471c efbc 266d 823d 0d99 5fbb ecd7 d4bb
000000c0: 92f7 603d b227 eebd 35c1 fbbc 82ad 983c
000000d0: f9f6 653e ff80 cbbc 7939 15be 1528 31be
000000e0: 4770 0b3e 8519 30be 207c 6f3d a4ef 913c
000000f0: 0057 023d 66a7 8cbd d68f 8db5 42a6 5ebd
0.017873216 -0.0023469965 -0.0039091483 0.12612411 -0.0012039468 0.14053175 -0.032572616 0.03677481
-0.037273735 -0.026852464 0.034949277 0.16254227 -0.025575303 -0.18809971 0.077705376 0.18777576
-0.037057355 4.8517586e-07 -0.021125652 -0.06742835 -0.0022404091 0.028453508 -0.14666185 -0.21184495
-0.022635238 0.13485758 -0.34069675 -0.18936731 0.2828465 0.29838634 -0.045132197 -0.11144429
0.0077693244 -0.24185805 0.22008942 0.05431095 -0.17255157 -0.024517218 -0.19320741 -0.14278165
-0.033597276 -0.051137205 -0.19158636 -0.0010657596 -0.029188288 0.06368475 -0.0034118325 -0.0064954665
0.0549236 -0.11628665 -0.030731777 0.018637422 0.22457494 -0.024841784 -0.14572705 -0.17300446
0.13617049 -0.17197235 0.058467984 0.017814465 0.03182125 -0.06867866 -1.054718e-06 -0.054357775

layers.0.lin_r.weight f4 [64, 7]
00000000: 77fd 36be b822 383e 5a4b 833d 0070 083d
00000010: 17a9 392b 6dc0 cc3d 91de 513e c464 8dba
00000020: 0511 372b a611 99ac 0059 de28 117a eb2a
00000030: b223 232b e22d cb29 725a debe 16fd 663e
00000040: 2d90 a9bd e5e9 ab3e 347e 132a 4975 543e
00000050: 2096 933e fac6 dc3c 2054 993e f51a d6be
00000060: 9a5d 4eab f0c7 8727 4e3e 7d29 d4c0 6429
00000070: 7283 9b3e dc2f 20be 2ded 0fbf a2fc 9c2a
00000080: 6c0c 7f2b 1d64 88a9 0283 c5ab ca1e 01bf
00000090: 968c 83bc 073d 423e 0345 603e 8b88 94ab
000000a0: 7717 2f3e 328e cd3e 0691 ab3c 7c43 8f3d
000000b0: db02 dfbc fc09 282a 8892 b127 a823 92a9
000000c0: 9924 592b 962e 623e 017f 413e 40e7 03bf
000000d0: 8711 8fa9 76fe 33ab 1caf 2dab b878 e529
000000e0: 7179 a93d 1e46 74be b767 d03d aea8 44be
000000f0: ce2f 73ab fd53 633d 10ff 863d cce0 c3bc
00000100: 99c8 a1b0 f7a7 27b0 9aa6 83ad aa83 d1aa
00000110: 0051 a72c 162c 562c 3fa3 ff3d 5f6d 11bc
00000120: 1d56 18b9 ea39 a2ac 8684 f229 3fa9 21ac
00000130: 26c5 b8ac fdf7 243d f28a 91be 8eb1 98be
00000140: 5c26 813e 14bf 0faa 14f3 a2bb c61d baba
00000150: 144f 59bc 4230 f32b f60f 11ab 6e70 eaaa
00000160: 99c6 bf2a eeef 81aa 1621 822b ee08 1fbe
00000170: e447 4cbd 8fe8 6bbd 65fb b43a 8027 a1a7
00000180: 9185 d73b 2066 9938 db9e 803d 3b34 02be
00000190: 579f 813d 5010 f6bd 02f9 43ab eb1c 823d
000001a0: 15b8 4ebd b6d1 36be 5376 7a3c 7b07 d23d
000001b0: 7019 883d d918 0a2b 0592 563d f36b 3e3e
000001c0: c5e9 673e 8b1c 3bbe 098d c73d 4257 f5bc
000001d0: 2229 56aa f3f5 7c3d f7fd 053d d962 77b7
000001e0: 2c74 ccb4 364c 73b6 3328 a3b5 2c5e 9229
000001f0: c48f b3b3 7e5b 02b4 4c9d b0be 078c 0f3e
00000200: 58fd 1c3c 2161 973e be75 c029 caca 353e
00000210: 394c 9e3e 94ba a0bc 8f30 43bc c3bb 33be
00000220: 9a6c 85ac d45a b92b 7c75 a32c 5291 abaa
00000230: 6e5e 34be 786e 2abe 720e 5b3e e838 dbbd
00000240: e0c4 d3a7 320b 4c3e b684 913e f7a2 8a3d
00000250: be55 b7bb 4383 00b8 fe4e 40b0 a864 c52a
00000260: b97e ecb1 7d88 8daf 4368 c83e 21ec 66be
00000270: 7e9f 0bbf a9c4 912b 650e 74ab 5c67 dc29
00000280: 6a74 7329 1782 83be 3ba3 aabd 402c 83bd
00000290: 1b7a ff3b 91c1 6cab d268 983c 3587 323b
000002a0: 84b1 603e 9862 16be b41c 7b3c ce88 dcbd
000002b0: e2ec a5ab e4a5 2dbc fb10 89bd a403 6a3c
000002c0: 744c 143e c8be dcbe 0d1d f23e e675 05ab
000002d0: 89b5 bcb9 d6ef e7b6 87f8 a73e 00c9 4d3e
000002e0: a7fa f3be 851a 982b 8ebf a32a af08 82aa
000002f0: 5ed5 6029 cf63 833e 2473 edbd 6058 ccbd
00000300: 2e13 23be de32 b22a aaad 77bb 2f93 bfbd
00000310: efc4 a9bd de02 cdbc e00c 21be f80e a13e
00000320: 1625 9aa9 3c3d 81bd 63c7 e9bc 46b3 173d
00000330: c808 a63e 61e6 06be 454e c23e b446 60a8
00000340: 3473 c1af 0920 e82c 86b1 5d3d e9b2 1b3e
00000350: 304a bebe 596b 94aa e714 0f2a 86d9 a2b7
00000360: 2e15 b1aa bac5 86be 545c 813d b1f4 2b3e
00000370: d5ab 6fbd 206a 96aa 7a91 d33d d609 593e
00000380: 74fb e9bd 6214 b1bd bf66 72bd 6411 ab3c
00000390: 8a17 bf29 df1f 0a3c 160f fe3c 6762 a6be
000003a0: 4f29 e13e 6233 13bd 389f 843e b024 a028
000003b0: 8003 a23d bf6b 533e 45af b43d 010a 2ebf
000003c0: 26c0 5abe 536a 2c3f 7eb1 432b 87a3 75b7
000003d0: ffb5 c5b5 cf57 103e b241 c3be 6d92 31bf
000003e0: 389e df2a ced7 b0a9 d048 0428 3277 b8a8
000003f0: e44d c63d ca2c 4dbe 2ac6 953e 9854 3dbe
-0.17870127 0.17981994 0.064108565 0.033309937 6.595986e-13 0.0999764 0.20495059 -0.0010787477
6.503828e-13 -4.350481e-12 2.4685549e-14 4.1829086e-13 5.795877e-13 9.0229704e-14 -0.4342838 0.22557482
-0.082794525 0.33576885 1.3100008e-13 0.20747866 0.28825474 0.026950348 0.29946995 -0.41817442
-7.33158e-13 3.76868e-15 5.6231326e-14 5.079342e-14 0.30373722 -0.15643257 -0.56221277 2.7886466e-13
9.061144e-13 -6.05698e-14 -1.4034054e-12 -0.50437605 -0.016058248 0.18968593 0.21901326 -1.0553931e-12
0.17098795 0.4014755 0.020943176 0.069952935 -0.027223041 1.4924861e-13 4.928624e-15 -6.489888e-14
7.7144676e-13 0.22088084 0.18896104 -0.51524734 -6.353516e-14 -6.394671e-13 -6.170496e-13 1.0190584e-13
0.08275116 -0.23854873 0.10176032 -0.19204971 -8.6397285e-13 0.05550002 0.06591618 -0.023910902
-1.1771305e-09 -6.099294e-10 -1.4966962e-11 -3.7217218e-13 4.7554183e-12 3.0435702e-12 0.124823086 -0.008876174
-0.0001452793 -4.6107467e-12 1.0769948e-13 -2.2973427e-12 -5.2514824e-12 0.040275563 -0.2842632 -0.29822963
0.25224578 -1.2767245e-13 -0.004972825 -0.0014199547 -0.013263483 1.7279583e-12 -5.15365e-13 -4.1644764e-13
3.406622e-13 -2.3081488e-13 9.246239e-13 -0.1553075 -0.049873248 -0.057594832 0.0013807832 -4.4729303e-15
0.0065772017 7.314631e-05 0.06280299 -0.12715237 0.0632922 -0.1201483 -6.9623484e-13 0.06353172
-0.050468523 -0.17853436 0.015287 0.10255333 0.06645477 4.906193e-13 0.05238535 0.18595867
0.2264777 -0.18272607 0.09743697 -0.029948834 -1.9021289e-13 0.061757993 0.032712903 -1.4745362e-05
-3.8082487e-07 -3.6254182e-06 -1.2156146e-06 6.500039e-14 -8.361488e-08 -1.2140478e-07 -0.34495008 0.1401826
0.009581886 0.2956629 8.546938e-14 0.17753139 0.30917528 -0.019620217 -0.011913433 -0.17552094
-3.7921445e-12 1.317025e-12 4.645782e-12 -3.0476538e-13 -0.17614147 -0.16643703 0.21392229 -0.107042134
-5.8777717e-15 0.19926146 0.28421563 0.06769364 -0.005594938 -3.0639825e-05 -6.996145e-10 3.5064074e-13
-6.8829107e-09 -2.574473e-10 0.39142045 -0.22551014 -0.5454024 1.0357454e-12 -8.670619e-13 9.7878926e-14
5.4057812e-14 -0.25685188 -0.08331915 -0.064049244 0.0077965385 -8.411267e-13 0.01860467 0.0027241234
0.21942717 -0.14686048 0.015326668 -0.10768281 -1.1789703e-12 -0.010598633 -0.06692692 0.014283095
0.1448229 -0.43114305 0.4728779 -4.741471e-13 -0.00035993409 -6.912257e-06 0.328068 0.20096207
-0.4765217 1.080761e-12 2.9087534e-13 -2.3098664e-13 4.9923058e-14 0.25662085 -0.11594227 -0.09977794
-0.15925285 3.1654448e-13 -0.003779272 -0.09354245 -0.08289515 -0.025025781 -0.15727568 0.31456733
-6.845407e-14 -0.06310508 -0.028537458 0.037036203 0.32428575 -0.1317382 0.3795034 -1.2449829e-14
-3.5188352e-10 6.597393e-12 0.054124378 0.15204968 -0.37165976 -2.6364569e-13 1.2708203e-13 -1.9413197e-05
-3.1456212e-13 -0.26322728 0.06316438 0.16792561 -0.05851348 -2.6718992e-13 0.10330482 0.21195158
-0.11424914 -0.08646466 -0.059180018 0.020882316 8.486187e-14 0.00843045 0.031013053 -0.3249695
0.43976828 -0.035937674 0.25902724 1.7779479e-14 0.07910824 0.2064657 0.088224925 -0.67984015
-0.21362361 0.6734974 6.9524237e-13 -1.4641212e-05 -1.4730612e-06 0.14095996 -0.3813606 -0.69364053
3.9722544e-13 -7.853406e-14 7.343261e-15 -2.0479796e-14 0.09682825 -0.20036617 0.2925275 -0.18489301

layers.1.lin_l.weight f4 [64, 64]
00000000: 62d2 21aa 34e3 fd27 7fb3 32aa 1a3d 74ab
00000010: 6eba 62aa 5ca7 d32c 13d5 082b 9c73 7ea8
00000020: c025 11b7 c94d 95aa a948 33b7 acb3 25b6
00000030: 015f 0c29 78ee 9d2a 7f08 22b9 3641 c9ad
00000040: 9a7a 8a31 f929 d0a8 5df0 a02a a814 3129
00000050: 4452 682f c88d 2fb7 2c6e 49a8 fcf5 db2a
00000060: a4c0 e637 b6ed d52a 6b36 24aa 83f2 2eb8
00000070: b539 612a 1e30 8b30 48ce 60aa 9818 a62e
00000080: 7b24 362d 8800 5daa ecbf 18ad 286c 1eaa
00000090: 360f f22c 8a46 24ab bf31 3f2a ba60 54b8
000000a0: 00da 9ca6 9522 99a9 08b6 002a eb05 63aa
000000b0: cf80 61aa e62e aaaa 227c 912a 9099 84a9
000000c0: 666b 84b7 dc8d de2a 98fe 11ba ad96 01b6
000000d0: 2b87 b1ad 1f29 55ab e7c9 5dab da8e 89ac
000000e0: 71f2 d0ab 9ee4 69ad 599d e62b 6c25 25a9
000000f0: b653 30b6 be07 70a9 87c8 a32a a2de 8a29
00000100: 0e07 4a2b 66ac 41aa 74bf a72b 2007 5cac
00000110: 0aaf 79ab 0000 d8ab cccf c22b bcae df2b
00000120: f655 61b4 aef3 4aaa 245c 55b3 1e40 87ac
00000130: 8bcd 7e2b 0415 e6a9 9acd a5b4 11d4 552b
00000140: 8b8d 1dae fee7 aca9 bcaf 182a 1454 37a9
00000150: e80e 36ab eb64 82b5 8be0 17ab f006 e127
00000160: d880 0eb7 6052 28a9 3c3a eb29 0c70 46b3
00000170: 7a05 00aa 5460 6bac ec93 deab fbd8 442c
00000180: b7e8 8cac 973b 9cab c830 0d2b 80c3 92ac
00000190: f45b d0ac 4c54 9f29 d2fe 08aa eee1 a4b4
000001a0: 6894 d5ac 1c12 a6a8 5c8c 34aa 2df9 352a
000001b0: c55f abab 6247 c029 8f50 952b 2417 36aa
000001c0: f0db 19ad 1291 d22b 3cf3 05b8 952b e431
000001d0: c623 00ab cb26 cf2c 4731 c2aa 28da 2dad
000001e0: 7539 392b 06e1 3dac 2ac3 252b 5035 132b
000001f0: 4257 92ab 4cd8 7629 8a04 8328 7f91 0cab
00000200: 6ecb afb0 3996 aea9 9d93 c1b0 b375 7bba
00000210: 188f 16b0 6933 0bb0 e7c4 c4b6 1b25 a5b7
00000220: f6a0 5fbc e877 4829 f6d1 e7b9 e821 45b8
00000230: 14c6 2ca9 8a5c 07a8 fca9 17bc 9098 8ab0
00000240: 4352 5bbb 6ebe 3daf 738a 5eb0 1c6c fead
00000250: 7b05 1caf 4775 84ba f48d 44b2 c2b7 72a9
00000260: 67bf 98bc bfc6 ddb6 19ff 85b0 f36c 89bc
00000270: cda8 f9ba 301f 3bbb 2cc6 f530 3eae deb8
00000280: 8062 3baf 8a8f 172f e7cb 2fb4 4083 b230
00000290: 014d 02ba 2b99 52af ab9b db30 815d 87ba
000002a0: e1ff 5fb8 a4ef 862f 8fca 81b0 ba84 8e28
000002b0: b358 3bb7 37bb 9fb5 2020 63a7 5480 9830
000002c0: 24a8 a330 16c9 f4b0 01e6 cbbc 183c babb
000002d0: 0448 fcb9 c2c1 00b9 807a c32c 9607 40b9
000002e0: 0971 2b30 0166 b7b0 88a0 cc30 8439 6431
000002f0: 51e9 b8b3 48f8 8a30 ee47 a62a 0127 8d30
00000300: 6d32 2caa a550 542a 8068 d026 26c4 f428
00000310: 6fa6 2fab adbe 90b4 a0b8 fb29 f3e6 2cab
00000320: 18ef 2036 a4e9 952a 9be1 8c36 9b48 1db8
00000330: 2d47 9929 a2af 47a9 ea97 c6b8 8c95 d634
00000340: 2cd7 9d31 097c 1ea9 8609 8f2a e815 cba9
00000350: 91f9 aab5 fd49 6f39 672c 062b a244 deaa
00000360: fb8a 2438 5bff af2a 7a65 77a9 6ef4 c8b8
00000370: 1ede 352f bde8 0035 3a2f d5a9 57c5 8a32
00000380: 606d aa27 fb54 64ab 2769 f7ae 8065 0127
00000390: c1cd 91ab b990 37a8 f1e2 cca9 ddd1 0139
000003a0: 49ee 172b 42fc f3a9 9d39 a0a9 5012 15aa
000003b0: 132f 2cab c8e3 c6a9 faf8 77aa 187f 45a9
000003c0: 00c5 03b7 d4c1 e82b 1290 12ba d42f 50b0
000003d0: 8df1 0831 95c8 162a 26a4 562d 4a4e 672d
000003e0: 8757 2fb0 900e 802d 0707 692d fa53 9d29
000003f0: d80b 88b5 2ef5 9b29 14b9 452a 0191 6daa
-1.4372664e-13 7.046794e-15 -1.5871851e-13 -8.677101e-13 -2.0137513e-13 6.0155613e-12 4.8612606e-13 -1.4124901e-14
-8.651463e-06 -2.652169e-13 -1.0686149e-05 -2.4691499e-06 3.1168647e-14 2.8054273e-13 -0.00015452689 -2.2880014e-11
4.030267e-09 -2.3110842e-14 2.8588495e-13 3.931981e-14 2.1129504e-10 -1.0463824e-05 -1.1181631e-14 3.90729e-13
2.7507842e-05 3.8001346e-13 -1.4585006e-13 -4.171069e-05 2.0004036e-13 1.0127257e-09 -1.9966765e-13 7.553175e-11
1.03536025e-11 -1.9628927e-13 -8.682815e-12 -1.4070743e-13 6.8797424e-12 -5.8362397e-13 1.6981467e-13 -5.0634822e-05
-1.0883764e-15 -6.800564e-14 1.1431839e-13 -2.0163703e-13 -2.0028704e-13 -3.0230609e-13 2.5843309e-13 -5.8886164e-14
-1.5785638e-05 3.9533557e-13 -0.00055692485 -1.9310203e-06 -2.0182597e-11 -7.572987e-13 -7.879517e-13 -3.909634e-12
-1.484658e-12 -1.329528e-11 1.6386156e-12 -3.6669818e-14 -2.627477e-06 -5.329742e-14 2.909376e-13 6.167052e-14
7.1774607e-13 -1.7201656e-13 1.1919203e-12 -3.1267836e-12 -8.8705486e-13 -1.5347723e-12 1.3842204e-12 1.5893602e-12
-2.098603e-07 -1.8025747e-13 -4.967673e-08 -3.844049e-12 9.0524176e-13 -1.02176975e-13 -3.088324e-07 7.59671e-13
-3.5823382e-11 -7.6785786e-14 1.3561282e-13 -4.070709e-14 -6.4680076e-13 -9.715126e-07 -5.395759e-13 6.2457567e-15
-8.493858e-06 -3.7374943e-14 1.04461985e-13 -4.6202373e-08 -1.1370584e-13 -3.3448981e-12 -1.5815105e-12 2.7973724e-12
-4.004876e-12 -1.1101006e-12 5.016096e-13 -4.1712744e-12 -5.9219244e-12 7.0756416e-14 -1.2167635e-13 -3.0711766e-07
-6.0703005e-12 -1.8437556e-14 -1.6035908e-13 1.616248e-13 -1.2176862e-12 8.538896e-14 1.0609446e-12 -1.6172876e-13
-8.745879e-12 1.4961663e-12 -3.19362e-05 6.640628e-09 -4.552438e-13 5.8876007e-12 -3.4495516e-13 -9.882352e-12
6.580494e-13 -2.6983429e-12 5.889062e-13 5.2298877e-13 -1.0398143e-12 5.481058e-14 1.454589e-14 -4.993991e-13
-1.2790744e-09 -7.753212e-14 -1.4084552e-09 -0.00095924287 -5.477303e-10 -5.0640964e-10 -5.8641776e-06 -1.9686811e-05
-0.013649216 4.4512923e-14 -0.00044216187 -4.7000038e-05 -3.8363477e-14 -7.514072e-15 -0.009256836 -1.0084182e-09
-0.003346578 -1.7257104e-10 -8.095988e-10 -2.8924467e-11 -1.4190064e-10 -0.0010105752 -1.1440978e-08 -5.389418e-14
-0.018645955 -6.6094503e-06 -9.749527e-10 -0.016775584 -0.0019047499 -0.0028552525 1.788242e-09 -0.0001061824
-1.7042545e-10 1.3784365e-10 -1.6372324e-07 1.2988508e-09 -0.0004970581 -1.9153805e-10 1.5978591e-09 -0.0010327549
-5.340565e-05 2.4544733e-10 -9.443556e-10 1.5822728e-14 -1.11667205e-05 -1.190091e-06 -3.1519993e-15 1.1095929e-09
1.1907599e-09 -1.7810489e-09 -0.024889948 -0.0056834333 -0.0004811884 -0.00012279212 5.5558336e-12 -0.00018313373
6.237007e-10 -1.3343994e-09 1.4888579e-09 3.321106e-09 -8.610608e-08 1.0111387e-09 2.9537435e-13 1.0270186e-09
-1.5294164e-13 1.8857362e-13 1.4461224e-15 2.7174508e-14 -6.240346e-13 -2.6960825e-07 1.11786665e-13 -6.142718e-13
2.3981029e-06 2.6629838e-13 4.198589e-06 -3.7499336e-05 6.806912e-14 -4.4339214e-14 -9.469672e-05 3.9969416e-07
4.5937636e-09 -3.519063e-14 2.540851e-13 -9.018811e-14 -1.273862e-06 0.00022820379 4.7667984e-13 -3.9482745e-13
3.9230083e-05 3.1263433e-13 -5.4933034e-14 -9.582272e-05 1.6540766e-10 4.8022395e-07 -9.467293e-14 1.6155054e-08
4.7303063e-15 -8.1119806e-13 -1.12509384e-10 1.795737e-15 -1.0359978e-12 -1.0189922e-14 -9.098788e-14 0.00012380579
5.3976664e-13 -1.08351276e-13 -7.115422e-14 -1.3240212e-13 -6.1172004e-13 -8.83248e-14 -2.2024388e-13 -4.3853023e-14
-7.854076e-06 1.653839e-12 -0.0005590926 -7.5737927e-10 1.992791e-09 1.3392267e-13 1.220094e-11 1.3148213e-11
-6.3789013e-10 1.4558382e-11 1.3246077e-11 6.986768e-14 -1.0136237e-06 6.9259146e-14 1.7561327e-13 -2.1100137e-13

layers.1.lin_l.bias f4 [64]
00000000: 3d0b 2fbb fdf5 9dba 5425 71bd de20 20bb
00000010: 9579 07bb ec4c 21be 6236 00bd 62ea bab9
00000020: ee78 3db9 c55c 05be bb04 11b9 6cb0 4eba
00000030: 7af7 8bbd 7839 cbbb 35a1 51bc be1b cfba
00000040: 8c6d 9f3d 5108 9b3d da63 54b8 43e2 e3b9
00000050: 47c3 ebba 70cb 8cbd 2404 bbbb f669 05bd
00000060: 246c 0cbc 423e deb8 1b9d f3bd 8d56 cbbc
00000070: 4d10 c33c 1e3d 2cbd 6e52 c9bd 37eb 83b7
00000080: 6dd4 2fb9 d28b 12b9 08a3 e9bb 3782 85bc
00000090: 899c c4bc 1343 b1b9 4886 2e3e 9e20 9d3b
000000a0: 0630 29bc 1d89 30b6 4ca0 3bbd 911e b9bd
000000b0: 6e43 b93d f9ce a5bc e8d0 e2bd cdba c1bd
000000c0: 9e76 e83d 5ff7 29be a1b1 63b5 f580 ea39
000000d0: b61f d53d 9a26 d6bd 673c 50be 3ba5 9fbd
000000e0: aa6e 00bd 455c 57bd 0fa9 8bbc e90d 5cb8
000000f0: d2e4 01b8 cb48 afbb 9869 f1b6 f435 3abb
-0.002670958 -0.001205146 -0.05887349 -0.0024433653 -0.0020671834 -0.15752 -0.031301863 -0.00035651313
-0.00018069494 -0.1302367 -0.0001383004 -0.0007884565 -0.06834312 -0.006201919 -0.012794782 -0.0015801114
0.07784566 0.075699456 -5.0637733e-05 -0.00043465392 -0.0017987274 -0.0687474 -0.0057072807 -0.032571755
-0.008570705 -0.00010597381 -0.118952 -0.024821544 0.023811484 -0.042050473 -0.09830175 -1.5725947e-05
-0.00016768435 -0.00013975732 -0.0071300305 -0.016297443 -0.024000423 -0.00033810045 0.17043412 0.004795148
-0.010326391 -2.6305854e-06 -0.045807168 -0.09039033 0.09046064 -0.020240294 -0.11075002 -0.094594575
0.113507494 -0.16598271 -8.4822574e-07 0.00044728038 0.10406439 -0.104565814 -0.20335542 -0.07795187
-0.031355537 -0.05257823 -0.017048387 -5.2465042e-05 -3.0969102e-05 -0.005349254 -7.1946524e-06 -0.0028413506

layers.1.lin_r.weight f4 [64, 64]
00000000: f4ca e329 5671 122a 68d2 c327 6149 14ab
00000010: def4 972a e403 a9af e65c a629 dc6b 3eab
00000020: e3e7 5836 0851 f6a8 b500 1eb5 7ae1 28b5
00000030: c20d f428 19f8 cbaa f653 7938 3fba 362f
00000040: 65a1 b9b0 2b9a fe29 eccc 132a 10a5 82a9
00000050: 6e01 2232 da8f b1b9 066a da29 85db 3fa9
00000060: 8951 a437 f84d 4e29 a08a cc27 ef58 45b8
00000070: 0dc6 30ac 4f6b 5d32 92a7 4c2a e442 30b4
00000080: e4f8 962c 00df 35a6 6a8b d1aa 0006 74a9
00000090: 7938 ae2e ff55 db2a 4656 c3a9 e20e 77b8
000000a0: 8c68 062c f67b efa8 95d8 a72a a6c6 ab28
000000b0: d945 892a 6c8c 0329 a28a 39a9 66e1 0929
000000c0: d478 0b36 66dc fd2a 3d9f ddb9 17f2 15b5
000000d0: 6bed 1f2d b84f d428 7eb6 eeaa a5ce 082e
000000e0: 45cb 8629 83cc 822e f026 b6ac b0c8 2728
000000f0: c3b1 65b6 eadb 8da9 55b5 972a 5b3a eea9
00000100: db87 31aa f4c6 4129 0897 102a 2a28 682b
00000110: 60cf 8cab 8855 10ab 08da a1ab 6cf7 542b
00000120: 3597 16b5 114e 992a 3638 e5b3 b327 0b2d
00000130: a81a fe29 5c76 89a8 0af0 16b5 4ae6 56ab
00000140: 4b01 402e e770 98aa e163 51ab 32ee 6d2a
00000150: ce52 0eac 746d c8b5 70d5 a62a ac35 71a8
00000160: 46ec 5bb7 cc4e 1dac a0c5 6128 847d 61b4
00000170: dcb2 f92b f477 012d f6aa 63ac 8d48 912b
00000180: 588b 8cac ea7f a2a9 f075 88a9 02d8 8aac
00000190: b870 512c b02e d6aa 636c 50ab 154e 17b5
000001a0: 7e71 852c 8c35 8929 1b86 fe2a de40 acaa
000001b0: aa2a afab d01b 6f28 d038 982b 248a 7f2a
000001c0: 32f3 4dad 369d 6eab 31c8 42b8 b11b 4f31
000001d0: 88fe 56ab 523b 322b 3078 a9a8 3e38 4bad
000001e0: ccb9 1fab 4cb7 3eac 14a3 abaa e085 20ab
000001f0: 2a4a 13ae 1bbb 08aa 716a d7a8 5a9f 502a
00000200: 0f84 e2b0 9079 b9a8 4adb c9b0 b1b8 79ba
00000210: 2d04 d5b0 4f92 beaf 731e 10b7 2972 9bb7
00000220: 5806 60bc f8fb 0a29 c2fb d7b9 7d50 40b8
00000230: 88f9 94a9 edee 62aa acde 15bc 531e d1b0
00000240: f189 5ebb 5218 21af f4fa 3eb0 6bbb f0ad
00000250: 4a9e 5130 1af6 7dba eb19 37b2 2092 d1a7
00000260: ad40 98bc 06fb 01b7 326f c930 1b49 8abc
00000270: 3f91 f7ba aba8 41bb dba1 0a31 a8f4 0eb9
00000280: 19ed 2ab0 f5d3 0db0 89ef c0b4 9de0 2b31
00000290: 6fb9 11ba d757 cd2f bc46 d330 ba3f 8cba
000002a0: b0a6 6eb8 46c8 80ae 6a72 aeb0 4e34 8729
000002b0: e85a 81b7 d279 1eb6 1261 9d29 e22c d92f
000002c0: 4828 bdb0 dc4b 4bb0 400c cabc 23d3 b8bb
000002d0: e39d 19ba da6e 13b9 09c5 33b0 40c4 4fb9
000002e0: 9e8d 0532 906d 7930 e60f f030 be36 1d30
000002f0: a483 9b33 2cb2 b72f d2a9 7ba9 8a6a c6af
00000300: 62c6 57aa c42e 04a9 8603 8729 b7a3 e7ac
00000310: a9b6 402b 1e11 4a35 86d7 28ab 3957 0a2a
00000320: 8a5b 5535 41bd d7a9 c8b2 eeb6 ac4b 2eb8
00000330: a319 08aa c85d 77aa 3342 b4b8 c2de 24b6
00000340: 0bc6 6c31 41e5 d4a9 7f78 6eaa 3a85 d129
00000350: 4340 1835 2f9c 8c39 c2cd ed29 a362 2caa
00000360: 253f 54b8 bc38 84aa 1423 8229 4209 e5b7
00000370: 06b6 312c 6c54 7b34 608b 86a7 f78c 89b3
00000380: dac1 d32b 2312 12aa eac2 a0ae 9539 3f2a
00000390: 04c5 fcab 716b e92a b2c1 02aa ceee b4b6
000003a0: 59e5 35aa 020c 3e2a 78ee a429 2eb2 1fa9
000003b0: 511d 15ab e223 ad2a f38b 0c2a dafa 222a
000003c0: 9838 87b8 7565 9a2c f267 12b9 25cd c2b0
000003d0: 9182 dc31 9e33 9129 c8a5 4e2d a294 8eaa
000003e0: 1cfb e6ac ab88 8f2d f69c 5a2d 865c 2c29
000003f0: fd48 34b6 93d2 9129 e752 46aa a16f 8429
1.0116032e-13 1.3006726e-13 5.4351495e-15 -5.2681996e-13 2.69929e-13 -3.0743685e-10 7.387996e-14 -6.7651245e-13
3.2321484e-06 -2.7346628e-14 -5.8860616e-07 -6.291299e-07 2.7095408e-14 -3.6232196e-13 5.944442e-05 1.6618971e-10
-1.3506393e-09 1.130661e-13 1.312732e-13 -5.8017935e-14 9.429966e-09 -0.0003386725 9.699537e-14 -4.2600922e-14
1.9588291e-05 4.5808816e-14 5.677167e-15 -4.7051286e-05 -2.5121045e-12 1.2888292e-08 1.8176977e-13 -1.6415612e-07
4.290889e-12 -6.309921e-16 -3.7222596e-13 -5.4184088e-14 7.9226355e-11 3.8961887e-13 -8.6747056e-14 -5.890325e-05
1.910058e-12 -2.658809e-14 2.9815443e-13 1.9070964e-14 2.4384555e-13 2.920964e-14 -4.1198497e-14 3.0615613e-14
2.0782945e-06 4.509476e-13 -0.00042271047 -5.585911e-07 9.090821e-12 2.35713e-14 -4.2403922e-13 3.1106357e-11
5.986057e-14 5.948044e-11 -5.177074e-12 9.313879e-15 -3.422713e-06 -6.299807e-14 2.6948813e-13 -1.0579446e-13
-1.5767892e-13 4.3027173e-14 1.2842169e-13 8.2478696e-13 -1.0005156e-12 -5.1277775e-13 -1.1500254e-12 7.5660897e-13
-5.609939e-07 2.723243e-13 -1.0673868e-07 7.91005e-12 1.128449e-13 -1.5261386e-14 -5.622866e-07 -7.6347663e-13
4.3656894e-11 -2.7078966e-13 -7.4390326e-13 2.1132469e-13 -2.022538e-12 -1.4933016e-06 2.9635626e-13 -1.3389826e-14
-1.3108429e-05 -2.2354783e-12 1.2532862e-14 -2.100042e-07 1.7742158e-12 7.359436e-12 -3.2353543e-12 1.0323007e-12
-3.9945096e-12 -7.216435e-14 -6.060072e-14 -3.9461776e-12 2.9763258e-12 -3.8046432e-13 -7.404686e-13 -5.636551e-07
3.7926875e-12 6.093311e-14 4.5212518e-13 -3.0598348e-13 -1.244634e-12 1.3273196e-14 1.0816018e-12 2.2696477e-13
-1.1706901e-11 -8.477276e-13 -4.6439647e-05 3.0138205e-09 -7.6381306e-13 6.3320627e-13 -1.8814892e-14 -1.1551702e-11
-5.674599e-13 -2.7102374e-12 -3.048886e-13 -5.702921e-13 -3.34898e-11 -1.2144142e-13 -2.3915957e-14 1.8529397e-13
-1.6481198e-09 -2.0591845e-14 -1.4687e-09 -0.00095261174 -1.5498977e-09 -3.4664757e-10 -8.590158e-06 -1.85306e-05
-0.0136733875 3.0860704e-14 -0.0004119557 -4.5851328e-05 -6.615807e-14 -2.0155726e-13 -0.009147327 -1.521537e-09
-0.0033956731 -1.4651505e-10 -6.9478223e-10 -2.7368071e-11 7.62587e-10 -0.0009687856 -1.0657895e-08 -5.816758e-15
-0.018585527 -7.747445e-06 1.4656278e-09 -0.016880563 -0.0018887891 -0.0029549997 2.0173647e-09 -0.00013633317
-6.2182576e-10 -5.159671e-10 -3.5937072e-07 2.5011453e-09 -0.0005558943 3.7351697e-10 1.5372374e-09 -0.0010700144
-5.689886e-05 -5.856342e-11 -1.2692685e-09 6.004278e-14 -1.542033e-05 -2.3614743e-06 6.9890396e-14 3.950396e-10
-1.3763009e-09 -7.395877e-10 -0.024664044 -0.005640404 -0.0005860014 -0.00014060308 -6.5399824e-10 -0.00019814167
7.773819e-09 9.074137e-10 1.7466817e-09 5.719406e-10 7.241695e-08 3.3414105e-10 -5.588049e-14 -3.609169e-10
-1.9164664e-13 -2.935045e-14 5.9958156e-14 -6.583591e-12 6.8465595e-13 7.527577e-07 -5.998469e-13 1.2287124e-13
7.948189e-07 -9.580748e-14 -7.1137656e-06 -4.1555308e-05 -1.2088121e-13 -2.1970544e-13 -8.5953994e-05 -2.4567566e-06
3.4455094e-09 -9.4544605e-14 -2.1180452e-13 9.3045756e-14 5.6717926e-07 0.00026819247 1.05606076e-13 -1.531089e-13
-5.0603547e-05 -2.3487278e-13 5.779245e-14 -2.7303238e-05 2.5254256e-12 2.3406909e-07 -3.734358e-15 -6.405201e-08
1.5046256e-12 -1.2973697e-13 -7.310581e-11 1.6984186e-13 -1.796036e-12 4.1463667e-13 -1.1613521e-13 -5.3922186e-06
-1.61556e-13 1.6879556e-13 7.324431e-14 -3.545964e-14 -5.297612e-13 3.0755872e-13 1.2483053e-13 1.4475522e-13
-6.447843e-05 4.3882072e-12 -0.00013962368 -1.4173663e-09 6.4176864e-09 6.448248e-14 1.1746555e-11 -2.5327402e-13
-6.564872e-12 1.631791e-11 1.2426718e-11 3.8271923e-14 -2.6864575e-06 6.4758223e-14 -1.7614695e-13 5.881342e-14

layers.2.lin_l.weight f4 [64, 64]
00000000: 774c 3f29 7c98 a12a c042 272a 2e20 18aa
00000010: 92f9 a2aa 7fd5 e233 1bcb 6fad 5389 9a29
00000020: 6b23 1cab 5434 27a9 b053 8229 d6a3 82aa
00000030: 3745 6734 6ccc 3e30 6f38 3b32 7e32 c8ab
00000040: abd6 91ba eacf e6af 4083 1229 ce1b 272b
00000050: 63a8 39a9 f1e0 77b1 48e6 0032 9b07 0e37
00000060: dcd9 ed28 6ec4 7aaa b884 7028 002c c1a8
00000070: 9ace 42b4 818a 572e 50c0 05b2 744d a629
00000080: 631a 972a 918c 03ab 3da5 b6b1 248e 55ab
00000090: f039 8029 466c 6329 fc5c 69ba 5cba a02a
000000a0: c984 85a8 1827 bd28 dc80 0532 1efd ffb6
000000b0: 9c5c e7b8 a265 20aa 8e55 99b3 c9c1 7c31
000000c0: 1288 efb6 9ee6 0bb4 3899 2c2b 9210 38a9
000000d0: 927e abba 9592 1aac 9822 0eb4 466e 512a
000000e0: da25 632c cf1b 8db3 5c08 3e2a 0bb0 e4a9
000000f0: ff1c 962b 937c 82b0 1208 41a9 240e 29aa
00000100: 1e70 5fbb 61e0 b637 8ee2 1abb c07e 1c3c
00000110: e4c2 e6b4 b837 c43d 7640 6e3c 298d 30bb
00000120: d03d 9cb6 5a0c 913a bd8a 9a37 c514 dfb0
00000130: c3a2 0c3e 2927 aa3d 6ab9 8e3c 2158 26b6
00000140: 62e6 78be d63e f93d 6591 37ae 4775 ce35
00000150: 5c43 e33a ff99 5bbc a914 66bc 46fa 353d
00000160: 6081 e037 67bb 9c35 a87e 2d3d bb90 9636
00000170: 731c 183e 7c53 9c34 3053 9a3c c6d9 18b0
00000180: e585 ae36 2cec 79b8 dca5 0237 339b 00bb
00000190: 42c3 c33b 3c22 212c 79a0 0dbf 5962 23bc
000001a0: dbda 183b cceb 582a 2a78 6f3d 188e b53d
000001b0: 0a80 08bd ea86 3e3b b7b8 913e 647d 763d
000001c0: 6bc4 153e 98cc e43c 7408 a433 560f 51bb
000001d0: a8a3 82be 8c00 853b 3f09 9c3c 32ff 61ba
000001e0: c224 ca3b 5a92 963d 2a76 d9bb 98db 913b
000001f0: 98ff 1829 ddfc 463c 3166 62a9 7590 1a39
00000200: 1049 272a cd1c 9ba8 51b1 19bc 51f7 212f
00000210: e9c3 cbaa 794d 4c3d 7b60 7ab7 0ee5 9b36
00000220: 0cf4 b3b9 2720 993d 80cb 34aa 3e0e 7329
00000230: eccc 2f3d 3088 3038 1070 f23d e0fe 76a9
00000240: ffae 513e 62c1 153e f359 2d29 8550 402a
00000250: 3336 092f c9a7 ec3d 9708 b43d c34c ffbe
00000260: 2a8d bea9 c353 8b36 3414 c93d 7d78 5737
00000270: 74bc 0e3e 0017 4632 6dab fd3d 289c b5af
00000280: fcc9 bf30 8e77 bb29 42b8 94b6 ac72 e029
00000290: 83e9 dc2c c0a6 fd28 2b0f 8d3e 575d df39
000002a0: 8f99 2e2c 4e80 862f 4196 ddbc aced 373e
000002b0: 8dac b53e 3243 82ac 0d7e 523e 0c29 47bc
000002c0: 11f3 25bf a4d8 c23b 2909 912a 80a4 04b5
000002d0: fde3 9c3e d111 633d 62c1 8dbc ed3e a7bb
000002e0: 009b 6433 adc5 0cbe 0450 52a9 20d9 f7ad
000002f0: 90b0 12a8 8467 2f3c 346d f029 b386 9737
00000300: 3778 07b9 d3e9 3c30 c10d 56b8 75bb 16b8
00000310: e4c4 192e da83 973d 7da0 553b 8317 b0b5
00000320: c6e2 6ab6 30e4 9cba be00 022e 2511 f92a
00000330: 3c33 963d 6b50 96bc 3479 18bc 82b5 c82e
00000340: 9978 67be 4529 673d 2fdd b0ac 3892 83ae
00000350: c16a b1b6 70c5 de3c f910 b23c a735 093e
00000360: 4636 23ad 0830 3433 251f af3c 4df9 c1b4
00000370: aa07 af3d bde6 c6b4 93c5 483d 66db d2ae
00000380: 724f 1eae b19e 6e31 c3ef 5c33 0865 10b9
00000390: e875 383a c528 a22a b170 f3be 8e89 7d3b
000003a0: a65f 17b3 581d 212a 88c1 733b 225d a93d
000003b0: 92f1 68bb d838 023a 6356 5e3e a09f b33c
000003c0: c98f 193e 3036 8e3c d3f9 232d 94b4 f2b7
000003d0: 2aa8 5dbe 5a31 30bb b73a 0e3c 2588 7e3a
000003e0: 8c52 1c39 4f68 8f3d 2128 4db9 e63d 8eb6
000003f0: 3cc4 402b b2a9 c23c 0114 40aa b962 8533
4.2476842e-14 2.8705152e-13 1.4855738e-13 -1.3511477e-13 -2.8950155e-13 1.056278e-07 -1.3630676e-11 6.862796e-14
-5.5471486e-13 -3.7126836e-14 5.787677e-14 -2.3206323e-13 2.1538732e-07 6.94121e-10 1.0897664e-08 -1.4224869e-12
-0.0011126598 -4.1984488e-10 3.2532354e-14 5.9368905e-13 -4.1224304e-14 -3.6071095e-09 7.5029405e-09 8.46563e-06
2.6406767e-14 -2.2272611e-13 1.3351455e-14 -2.1446386e-14 -1.8142819e-07 4.9008356e-11 -7.785346e-09 7.385317e-14
2.6841298e-13 -4.6735624e-13 -5.3156826e-09 -7.587006e-13 5.6943924e-14 5.0498038e-14 -0.00089021004 2.8551022e-13
-1.4823553e-14 2.100017e-14 7.770918e-09 -7.629059e-06 -0.00011032188 -1.4246116e-13 -7.14018e-08 3.678098e-09
-7.1385957e-06 -1.3029282e-07 6.131931e-13 -4.087058e-14 -0.0013083986 -2.1966086e-12 -1.3237366e-07 1.8601188e-13
3.2279652e-12 -6.5708825e-08 1.687829e-13 -1.01557726e-13 1.0666189e-12 -9.494151e-10 -4.286161e-14 -1.5015121e-13
-0.0034093927 2.1800575e-05 -0.0023633572 0.009551704 -4.298264e-07 0.0958094 0.014541736 -0.0026939607
-4.656358e-06 0.0011066303 1.8422836e-05 -1.6231289e-09 0.13733964 0.083082505 0.017422397 -2.4787225e-06
-0.24306634 0.12170188 -4.173852e-11 1.5382328e-06 0.00173388 -0.013403415 -0.014043012 0.044428132
2.6763126e-05 1.1677447e-06 0.042357117 4.487197e-06 0.14854603 2.9118007e-07 0.018838495 -5.560675e-10
5.2011915e-06 -5.958618e-05 7.787221e-06 -0.0019623756 0.0059742043 2.289848e-12 -0.55322987 -0.009972178
0.0023323807 1.9266462e-13 0.058464207 0.08864993 -0.033325233 0.0029072114 0.2846124 0.060178176
0.14625709 0.02792959 7.638383e-08 -0.003190001 -0.25515485 0.004058903 0.019047378 -0.0008621096
0.0061689327 0.07352133 -0.0066364007 0.0044512264 3.3972472e-14 0.012145248 -5.0270718e-14 0.00014740399
1.4857928e-13 -1.7220947e-14 -0.009380654 1.4730729e-10 -3.6195984e-13 0.04987857 -1.4923625e-05 4.6460254e-06
-0.0003432337 0.07476836 -1.6057815e-13 5.3969192e-14 0.042920038 4.2088504e-05 0.118377805 -5.484404e-14
0.20476912 0.14624551 3.8491735e-14 1.7080961e-13 1.2479333e-10 0.1155544 0.08790701 -0.49863252
-8.462183e-14 4.152274e-06 0.098183066 1.2843052e-05 0.13939077 1.15303465e-08 0.123862125 -3.3034664e-10
1.3954486e-09 8.3252077e-14 -4.432194e-06 9.967491e-14 6.278701e-12 2.8160959e-14 0.27550635 0.00042603418
2.481213e-12 2.4465624e-10 -0.027049186 0.17961758 0.35483208 -3.7022824e-12 0.20555897 -0.012155782
-0.64824015 0.0059462357 2.576353e-13 -4.941321e-07 0.3064269 0.055436913 -0.017304126 -0.005103937
5.322636e-08 -0.13747282 -4.669877e-14 -2.8177072e-11 -8.142914e-15 0.010705832 1.0677085e-13 1.8063327e-05
-0.00012919387 6.8726286e-10 -5.1034385e-05 -3.593737e-05 3.4963046e-11 0.073981956 0.003259688 -1.3119865e-06
-3.5000717e-06 -0.0011969861 2.9559237e-11 4.4243182e-13 0.07333991 -0.018348893 -0.009306241 9.127189e-11
-0.22604598 0.056435842 -5.026777e-12 -5.983164e-11 -5.287439e-06 0.027193755 0.021736609 0.13399373
-9.277528e-12 4.19532e-08 0.021377156 -3.6130442e-07 0.08546384 -3.7048258e-07 0.049016546 -9.5886674e-11
-3.5995602e-11 3.4723764e-09 5.1440804e-08 -0.00013770547 0.00070366124 2.880527e-13 -0.47546914 0.0038686725
-3.524442e-08 1.4309853e-13 0.003719421 0.08269717 -0.0035544378 0.0004967577 0.21712641 0.021926701
0.14996256 0.017359823 9.320949e-12 -2.8932736e-05 -0.21646181 -0.0026884885 0.008680991 0.0009709618
0.0001490807 0.07002317 -0.00019565273 -4.2391357e-06 6.848443e-13 0.023762558 -1.7059966e-13 6.211253e-08

layers.2.lin_l.bias f4 [64]
00000000: 9aa9 6bbb ef00 793c 269d 5b3e d493 24bc
00000010: 7b7c 473d 9926 baba 9313 02bd c647 c63b
00000020: 0d4d abbd b8e8 f03c 1e93 763c 9ed0 9a3a
00000030: 6826 d83d 9d1d 4ebd ec60 4bbd 7ce3 2d3d
00000040: 2e18 b2ba 9aac 163d 5bdf 33bd afe4 84b8
00000050: d9b4 39bd 683e 3cbd b86e 5abb 7227 a0bc
00000060: 1b00 efba db7f 5bba c807 04be e6fc ffbc
00000070: 38c6 3fbb cc39 40b9 0bf2 a6bd 4349 14bd
00000080: 6ebc 6cbc 7589 93bc 1777 3db5 b6fe 3dbd
00000090: 35a0 c5bc 251a 67bb bef9 64bb 55c5 e0b8
000000a0: 7985 6cb9 ca89 70ba 62bb b0b5 b42a 5ebd
000000b0: aea7 f0b9 3e1a efb7 4620 b6ba 32e5 d5bd
000000c0: 2550 833d 44b5 5dbd 34ad 12bc aee4 09bc
000000d0: 2c4d e5b9 2b36 7c3c 3cb2 c6bd e57f 08be
000000e0: b2ea eaba ece2 1ebc 9c0b a4ba 8e86 bfbb
000000f0: 8ebe 07bd 6cab 72bc 7efa 6a3e d5a2 25bc
-0.0035959245 0.0151979765 0.21446666 -0.010045011 0.0487027 -0.0014202177 -0.03175695 0.0060510365
-0.08364306 0.029407844 0.015049724 0.001181144 0.105542004 -0.05032121 -0.04965298 0.042453274
-0.0013587528 0.0367857 -0.04391418 -6.336846e-05 -0.045338485 -0.045957953 -0.0033330154 -0.019550059
-0.0018234284 -0.0008373239 -0.12893593 -0.031248521 -0.0029262435 -0.00018332078 -0.08151635 -0.03620268
-0.014449222 -0.01800988 -7.0581285e-07 -0.04638549 -0.024124244 -0.0035263386 -0.0034938897 -0.00010717908
-0.00022556436 -0.00091758056 -1.3167557e-06 -0.054239944 -0.00045901298 -2.850324e-05 -0.0013895116 -0.10444106
0.06411771 -0.054127946 -0.008952428 -0.008416338 -0.0004373578 0.015393774 -0.09701964 -0.13330038
-0.0017922728 -0.009697657 -0.0012515667 -0.0058448976 -0.03314071 -0.014811378 0.22947118 -0.010109623

layers.2.lin_r.weight f4 [64, 64]
00000000: fcb4 d7a8 7f0b 30ab 072c cb29 a8bc c8a9
00000010: 3041 162a 7012 59b3 6477 24ad e312 b729
00000020: 5439 a4aa 0904 8a29 fca6 08a8 2c75 59a9
00000030: 9826 8c35 dfbe f630 d5f0 31b3 48f1 772b
00000040: b49d a0ba 3a56 90b1 601b db2a a145 312b
00000050: 287a 6b29 7f35 5b32 620f 9db1 c32a 4837
00000060: 001f 69a6 368d 3da9 2415 fda9 d5d4 aa31
00000070: 7f31 0635 1901 52ae 2de8 e732 5e2e 86aa
00000080: 3094 1b28 f876 c9a9 350d 5630 8886 54a9
00000090: f63a eba9 9477 1d2a 1a08 3aba 9483 82ab
000000a0: f84b 96a8 3001 ff29 b620 55b1 4815 4137
000000b0: 1279 6535 847d 7daa 3406 e8b3 3f8e a5b1
000000c0: 2269 1537 63a5 0ab3 ac2d d9a7 70b6 2a2a
000000d0: 5e1e 4aba 1e4a b12c 7e81 9db2 0c78 b02a
000000e0: 686f d62b bbec c4b3 d62b 17a9 8f3d 93a9
000000f0: b093 4aab 551b 92b0 b23a bc28 b06d 84ac
00000100: 6d58 893b 85c4 e437 c064 0cbb 8496 6e3b
00000110: 3dda 3b34 c0a8 ab3c 13ed 5238 311b 77b9
00000120: 715a 33b6 3470 8fb9 f583 b138 536b 8bad
00000130: 88a0 f9bc ae77 87bc f79f ac3d 7296 14b7
00000140: a794 11be db6c b83d 6e39 aeae 9da2 ca35
00000150: 4a64 603b e42c bbba f1b6 ae3d 8922 283e
00000160: b6f4 17b4 5272 e735 40ee fc3c ba72 15b4
00000170: e999 a83d e101 01b6 9e1b f0ba c85e 202f
00000180: 1d47 b035 f58f 89b8 596c 98b7 fd1d 14bb
00000190: bcea a93b 5afb 10aa 1957 7dbd e6c6 8cbb
000001a0: d3ab 0f3a def0 1c2b 763c 1dbd 7cf1 573d
000001b0: e82c e3bc efa5 213b 1279 433c 9f0b 223c
000001c0: 2764 4fbc 71ad 063d d737 1834 24fc 5b3a
000001d0: 6488 8cbc 8495 5c3b cca5 fd3b 937a 363a
000001e0: 15bb edba cf11 263d eefe c4bb 8e1f d93b
000001f0: 7c44 b12b a90a 27bc 6adc 9e2a 15e5 b139
00000200: 243e be29 b63d 0caa df34 50bc 0f89 3bb0
00000210: 0420 b3ab cff6 25be c096 d636 c425 ca36
00000220: 4eb9 6d39 fbe7 9c3d ed1f 13aa 24e4 1129
00000230: 7dfa 0cbc a41e c9ba 5f58 59bc ab05 5d2a
00000240: dd17 e83d 9af3 58bc ac4e a128 a09a 58aa
00000250: 150d 2bad cd9c adbb 18c2 2dbc f793 27bf
00000260: 7169 f82a 535d 8936 887b b93d 073a 1a37
00000270: 8bf8 b3bb 6c7d 11b5 9a6f 1dbb 9a62 94b0
00000280: dbfb 01b1 6a8c 09a9 5195 5b36 1ddc 82aa
00000290: ee1e e52c 9cf6 52aa 7623 fe3d e50a d439
000002a0: f555 312c d698 7eaf 5e5f 0fbc 854e 34bd
000002b0: 4704 163e fdd1 75ac 10b1 b33d 2ac3 c03a
000002c0: a964 11bf d7ad 79be 7f89 dd29 8b48 1cb5
000002d0: 6aa2 1d3e 02ea 543d d776 99be cb58 5bbb
000002e0: 7ca7 b431 d6a3 86bd 6e5d c629 288e 7aae
000002f0: d7ac 4c29 ac68 acb6 25c4 4a2a 2741 a937
00000300: f9c1 bcb8 9c49 9b2f 935b 29b8 60d0 e738
00000310: b981 fd2d 86a4 b63c e310 ffba 75f8 00b7
00000320: ccd5 feb5 fde3 67ba 9b7c d82c aa72 c1a9
00000330: 3558 483d 3e05 27bd 2a01 703d 1e43 c0b0
00000340: c0a4 f9bd 89a0 323d 4274 b6ac e209 10ae
00000350: 4035 7535 cfe0 003d 200b 473d a2e3 113e
00000360: e036 8e2d 404f 70b5 f79f 843c d125 d5b4
00000370: 8f5a 013d 6072 bcb5 1c7e 9e3c b742 22af
00000380: 4117 942d d195 1f30 9ed0 3933 96b4 aeb9
00000390: 478d 2b3a b45b 002a 82e6 3cbd 6870 3e3a
000003a0: c827 2bb1 3016 04aa 6d80 e8bb 536a f43c
000003b0: e564 bf3c 2e31 073a 2276 273c f125 74bd
000003c0: d3b7 54bd 6b0a e63c 7eb9 052c 6ae9 b638
000003d0: c599 81bc fd0d 33bb 5682 2d3c f59f 163a
000003e0: c6d0 14bc 04bf b4bc c201 97b8 dcca 0e37
000003f0: d8d0 47a9 6fb2 c43b a625 502a f5d1 2db1
-2.3948284e-14 -6.2543715e-13 9.0226485e-14 -8.914511e-14 1.3345293e-13 -5.054102e-08 -9.348831e-12 8.130109e-14
-2.9172032e-13 6.129131e-14 -7.5857255e-15 -4.828531e-14 1.0442045e-06 1.7953105e-09 -4.143006e-08 8.8086873e-13
-0.001225403 -4.2007544e-09 3.892121e-13 6.297966e-13 5.2286436e-14 1.2759641e-08 -4.57105e-09 1.1930885e-05
-8.0880127e-16 -4.208891e-14 -1.1239124e-13 4.9718474e-09 4.9990916e-07 -4.7749447e-11 2.699752e-08 -2.3835355e-13
8.6363615e-15 -8.946831e-14 7.7871515e-10 -4.7190144e-14 -1.04463245e-13 1.3985888e-13 -0.0007096544 -9.273576e-13
-1.6686292e-14 1.1324481e-13 -3.1014173e-09 1.1508651e-05 8.548533e-07 -2.2514461e-13 -1.080447e-07 -4.8183035e-09
8.90557e-06 -3.2281047e-08 -6.0279117e-15 1.5162329e-13 -0.00077102135 5.0388712e-12 -1.8336092e-08 3.134718e-13
1.5236536e-12 -9.170022e-08 -3.3566757e-14 -6.53879e-14 -7.1969774e-13 -1.0630666e-09 2.0897648e-14 -3.7638434e-12
0.0041914494 2.727123e-05 -0.0021422356 0.0036405632 1.7495127e-07 0.02095449 5.0288694e-05 -0.00023565885
-2.6725722e-06 -0.00027358683 8.4645966e-05 -1.5850132e-11 -0.030472055 -0.01653656 0.084289484 -8.856516e-06
-0.14216863 0.090051375 -7.9228055e-11 1.50975e-06 0.0034239464 -0.0014280346 0.08530987 0.16419424
-1.4151996e-07 1.7244113e-06 0.030875325 -1.3918444e-07 0.08232481 -1.9223592e-06 -0.0018318777 1.4585588e-10
1.3133719e-06 -6.559483e-05 -1.8170265e-05 -0.0022600882 0.005185453 -1.2876974e-13 -0.06185064 -0.0042961715
0.0005480621 5.5756604e-13 -0.03838774 0.05272053 -0.027731374 0.0024665555 0.011930721 0.009890466
-0.0126581555 0.03288025 1.4176418e-07 0.0008391759 -0.01715488 0.0033658454 0.007740712 0.0006961014
-0.001813742 0.040544327 -0.0060118353 0.006626076 1.2595615e-12 -0.010195413 2.821938e-13 0.0003393075
8.448475e-14 -1.2455908e-13 -0.012707918 -6.8224976e-10 -1.2727601e-12 -0.16207431 6.3952466e-06 6.0244656e-06
0.00022671113 0.07661434 -1.3067299e-13 3.2394348e-14 -0.008604643 -0.0015344215 -0.013265698 1.963071e-13
0.113326766 -0.013241673 1.790871e-14 -1.92383e-13 -9.723129e-12 -0.005298233 -0.010605358 -0.6546015
4.4126814e-13 4.0937825e-06 0.09056765 9.192626e-06 -0.005492275 -5.419922e-07 -0.0024022819 -1.0796442e-09
-1.8915134e-09 -3.05419e-14 3.2720457e-06 -2.3245373e-13 6.5120053e-12 -1.8737307e-13 0.124091074 0.00040443908
2.5200929e-12 -2.3155464e-10 -0.008750765 -0.044020195 0.14650069 -3.493316e-12 0.08774006 0.0014706601
-0.5679422 -0.24382721 9.838223e-14 -5.822009e-07 0.15393987 0.05198098 -0.2997348 -0.0033469673
5.2577303e-09 -0.06574218 8.809174e-14 -5.696968e-11 4.5447014e-14 -5.138185e-06 1.8009255e-13 2.0176709e-05
-9.000669e-05 2.8246638e-10 -4.0378025e-05 0.00011053751 2.8820378e-11 0.022295248 -0.0019459989 -7.687243e-06
-1.8986698e-06 -0.00088459236 6.1529232e-12 -8.590813e-14 0.048912246 -0.040776484 0.05859486 -1.3988914e-09
-0.12189627 0.04361013 -5.1856583e-12 -3.2750587e-11 9.13471e-07 0.031464394 0.048594594 0.14246991
1.61679e-11 -8.952229e-07 0.016189558 -3.9701857e-07 0.031580504 -1.4040379e-06 0.019347243 -1.4757516e-10
1.6835979e-11 5.8056765e-10 4.3263405e-08 -0.00033322413 0.0006544184 1.14005e-13 -0.046118267 0.00072646746
-2.4906388e-09 -1.1731653e-13 -0.0070953877 0.029835856 0.02336354 0.00051571697 0.010221036 -0.059606496
-0.05193312 0.02808114 1.9003406e-12 8.721913e-05 -0.015820393 -0.002732157 0.010590157 0.00057458814
-0.009082979 -0.02206374 -7.2005685e-05 8.511091e-06 -4.436802e-14 0.0060027163 1.8487173e-13 -2.529416e-09

layers.3.lin_l.weight f4 [2, 64]
00000000: bfa8 3abb 5eb1 5fbe 5129 dfbe 01f5 f6bd
00000010: 0d76 b93c b631 373b d9d9 3dbe 55c5 88bc
00000020: 70a2 85bd 207a 7ebe eb4e 503c 5571 8cbb
00000030: 8bcf 90be ee99 b9bd 232d 16be 6536 333e
00000040: 4e5e db3b 338e 9dbd ea11 743e 0627 4638
00000050: b4a6 3eab 5d6a 813e 1249 61be 1c2f 90b9
00000060: eb10 863c 0775 63bc d93c d9bd ffbd e1bd
00000070: 304b 703c b535 88bb 5603 813e 3990 81bd
00000080: 8ce8 adbc 51fa 183d 8088 9dac e7ac 81be
00000090: 15bc 7aba 497b 54bb 28dc 00bc 293f cd3b
000000a0: abb0 0637 1139 083b 99fe 41b4 ad6d 58be
000000b0: 24b6 eab1 7d6f d8ba af88 ee3a 8604 29be
000000c0: 4569 213e 261a 593e 0b46 983c 3bc6 b93c
000000d0: c0de e938 c836 13be 3641 96be 494f 4e3e
000000e0: 3437 bc39 fcf9 8d3e d765 dabb 4f62 e4bd
000000f0: 9313 54bd 0f18 14ba adbd 13bf 2290 c9bc
00000100: 9b0a ac3c cd84 803e 3ab2 d13e d959 513e
00000110: 9b16 93bd b618 4b3c 018d 4e3c a7e8 253e
00000120: da84 8d3d 2ffc 8f3e 1610 07bd fe4c e83b
00000130: 6e54 923e 8946 833e 4d68 313e cfc2 09be
00000140: 9de1 0dbb ca3b 103e f42b 87be 37c2 1139
00000150: 725e 80ab dc20 93be 4cd8 513e b174 933c
00000160: 3bbb 0d3c acf2 073a d7b4 913e fb01 8cbc
00000170: 4906 fe3a 3d16 9b3b 1fc0 31be 7380 94bd
00000180: 2cab ac3c 20c4 19bd 56e4 272d 2732 673e
00000190: ba6c e6b8 df3d 593b 9235 ff3b 960a 743c
000001a0: 0177 09b7 823b 993a f833 4a34 be1a 473e
000001b0: ec3b 8130 0d76 413a 1cc3 b43c 3793 753e
000001c0: 8411 b7bd e0df 36be 3644 423c e801 013e
000001d0: d177 a8b8 6feb 383e 77d1 893e 3ff4 abbd
000001e0: bb3f bdb9 873e 8cbe 520d b7bb 775e 8f3e
000001f0: fb70 bebc ddb3 6cbb d8fa 1a3f 393b c43c
-0.0028481928 -0.21845004 -0.4358621 -0.120584495 0.022639299 0.0027953214 -0.18540134 -0.016695658
-0.06525123 -0.24851274 0.012714128 -0.004285971 -0.28283343 -0.09062563 -0.14665656 0.17501219
0.0066945916 -0.07693138 0.23834959 4.7243222e-05 -6.7732907e-13 0.2527646 -0.2200053 -0.0002750092
0.016365489 -0.013882882 -0.10607309 -0.11022567 0.014666364 -0.004156793 0.25197858 -0.063263364
-0.021229051 0.037348095 -4.477363e-12 -0.25327227 -0.00095647696 -0.0032422116 -0.007864989 0.006263633
8.028156e-06 0.0020785967 -1.8067148e-07 -0.21135588 -6.8310033e-09 -0.0016512718 0.0018198694 -0.16505632
0.15762813 0.21201381 0.018588087 0.022677531 0.00011151796 -0.14376366 -0.29346627 0.20147432
0.00035899284 0.27729785 -0.0066649723 -0.111515634 -0.05177648 -0.0005649337 -0.577113 -0.02460486
0.02100115 0.2510132 0.4095629 0.2044443 -0.07182046 0.012396028 0.01260686 0.16202031
0.06910105 0.28122088 -0.032974325 0.0070892563 0.2858004 0.25639752 0.17324944 -0.1345322
-0.0021649369 0.14085308 -0.2640072 0.00013900628 -9.121161e-13 -0.28736007 0.20492667 0.017999979
0.008650596 0.0005186002 0.28458282 -0.017090788 0.0019380535 0.0047328756 -0.17358445 -0.07251062
0.021077715 -0.037540555 9.543552e-12 0.22577725 -0.000109875065 0.003314845 0.0077883685 0.014895102
-8.193544e-06 0.0011690708 1.8831622e-07 0.19443795 9.403016e-10 0.00073799567 0.022065692 0.2398194
-0.08938888 -0.17858839 0.011857083 0.12598383 -8.033182e-05 0.18058561 0.26917621 -0.083961956
-0.00036096372 -0.27391455 -0.0055863047 0.28001758 -0.023247233 -0.003611795 0.6053901 0.02395402

layers.3.lin_l.bias f4 [2]
00000000: b428 623b 045d b6bc
0.0034509124 -0.02226115
